checkpoints/run_3_vit_model.pth (torch, 75083 bytes, 134 tensors)

_positional_embedding f4 [1, 50, 8]
0.2147414 0.30932504 1.2385083 -1.8317901 1.4173075 1.2339401 0.05384062 -0.92558426
0.11207086 0.92191976 -1.5135729 -0.79215884 -1.3463407 -0.81042945 0.38630792 0.6035092
-1.3590443 1.4537967 0.47507998 -0.3427352 -0.1548334 2.2279391 -0.19160557 -0.13301662
-1.4053917 0.81532985 -0.42684668 -0.099539615 0.18337904 1.3761048 -0.20717803 0.13537419
0.17990051 1.4245994 -0.20545146 0.17202288 0.81126267 -1.0864305 0.18007079 0.70284534
-0.2497383 -0.37022504 -0.6104118 -0.8673909 1.052452 0.97060233 -1.1930549 1.294025
0.46400994 0.54048836 0.5580144 -0.18921083 1.6100273 -0.11459348 0.025276802 0.36997524
0.56579345 -0.77256304 0.33756164 -1.2315054 0.5483726 -0.8681525 0.07069289 1.2672913
-1.1704123 0.44283313 1.1620314 0.35997587 0.7944176 1.1752292 0.05914388 0.040088125
1.0377628 0.20928158 0.5782013 0.22220531 -0.70802355 0.4016238 1.012819 -0.34135497
1.7604597 0.17122638 0.024256406 1.0611286 -0.5458614 -0.41358903 0.047440927 -0.5566745
1.2269268 0.25499192 0.9856275 0.99601805 0.7448842 0.18827848 -3.051505 -0.846668
-0.43051857 0.7835608 0.73504937 1.3323689 0.38553452 -0.1148914 0.92192495 -1.5351596
-0.079360664 -0.54135954 0.5502188 -1.0197549 -0.025400389 1.0239304 -0.45683238 -0.20950429
-0.3092594 0.21488348 -1.2097743 -1.6862237 -0.005859907 0.54871356 -0.13899094 -0.091164276
2.4354243 0.09605857 1.0649127 1.6040901 1.5850452 0.45357472 0.67877364 -0.51818043
-0.698399 -0.49513087 -0.2573824 -0.892106 -0.11861063 -1.6106906 -0.32844535 0.5044121
-0.5948649 1.6328111 1.0450883 0.0336911 -0.3196344 0.7025404 -0.76345694 0.17202903
-2.0806825 -0.33906004 -1.1152052 1.1390405 -1.1218365 1.0900655 0.9024272 -0.55518556
0.4054592 -0.18504737 -0.6402414 0.65880156 -0.1147732 1.6723697 -0.3001093 1.5770473
-0.1056971 -0.1620502 0.98655653 -0.51313215 -0.048051644 1.6536185 0.72419655 -0.078881085
0.1654187 0.6689569 -0.20549987 -1.171039 -0.08827607 -1.6079572 -0.073280714 -0.30177283
1.1965073 -0.24754055 0.2794839 -1.785317 1.0127063 0.1750792 0.46081072 0.8386485
-0.27734926 -1.6036462 -0.7805693 -2.8525152 0.99936676 0.42663175 -0.14181866 -0.69724435
0.5833971 2.3355346 1.1171147 1.2519954 0.8081178 -1.9995936 0.7494525 0.3927829
-0.32751545 0.5508987 -0.00027115407 -0.4343042 1.4758548 -1.0736058 -0.38278624 -0.0509092
0.113816604 1.2754942 -0.76359504 0.6458888 -0.7045376 0.9152552 1.7358853 -1.4022257
0.28057173 -1.5496312 -0.68010634 0.4395008 -0.29279637 1.1170758 -0.25389913 0.2725608
-1.4382597 0.09714859 -1.2280099 1.2539036 -0.33666402 -0.049328405 1.4295189 0.44763038
0.5444123 0.16764106 0.60366476 0.7404071 0.87813175 -0.47276002 0.84801906 0.6464411
-0.52210945 0.27524042 -0.5097323 -0.48036277 -1.2136348 -1.262118 -1.0706108 -1.8356944
-1.1867654 0.69666445 0.8893682 -0.909963 0.9895503 0.30788943 -1.8436265 0.8379103
00000000: 2be5 5b3e da5f 9e3e 7187 9e3f 1978 eabf
00000010: 556a b53f c0f1 9d3f fb87 5c3d 17f3 6cbf
00000020: 6885 e53d ef02 6c3f c2bc c1bf ecca 4abf
00000030: e454 acbf 4e78 4fbf 27ca c53e 947f 1a3f
00000040: 2af5 adbf 0316 ba3f af3d f33e fd7a afbe
00000050: a68c 1ebe 8e96 0e40 4034 44be 8235 08be
00000060: e0e3 b3bf 75b9 503f a68b dabe 6ddb cbbd
00000070: b7c7 3b3e 3424 b03f 7a26 54be 889f 0a3e
00000080: d737 383e 4659 b63f de61 52be c426 303e
00000090: e9ae 4f3f 2810 8bbf 7a64 383e aced 333f
000000a0: 66bb 7fbe 238e bdbe f343 1cbf 540d 5ebf
000000b0: bfb6 863f 6579 783f 06b6 98bf 9ca2 a53f
000000c0: b692 ed3e 725d 0a3f 08da 0e3f 7cc0 41be
000000d0: 6015 ce3f fdaf eabd 4c11 cf3c 656d bd3e
000000e0: d7d7 103f b1c6 45bf e1d4 ac3e f8a1 9dbf
000000f0: 2662 0c3f 3e3f 5ebf 6fc7 903d 9a36 a23f
00000100: 12d0 95bf 06bb e23e 72bd 943f c24e b83e
00000110: f45e 4b3f e96d 963f da40 723d 7233 243d
00000120: 69d5 843f e94d 563e 0005 143f ca89 633e
00000130: 0841 35bf a2a1 cd3e 0ea4 813f 14c6 aebe
00000140: be56 e13f f855 2f3e 5fb5 c63c 10d3 873f
00000150: 93bd 0bbf f1c1 d3be 6b51 423d 3882 0ebf
00000160: f00b 9d3f 4d8e 823e 1552 7c3f 0afb 7e3f
00000170: bbb0 3e3f 13cc 403e dc4b 43c0 3cbf 58bf
00000180: ee6c dcbe 7197 483f 322c 3c3f 108b aa3f
00000190: c864 c53e 2f4c ebbd 4603 6c3f 1c80 c4bf
000001a0: d887 a2bd 8a96 0abf 24db 0c3f 5487 82bf
000001b0: 7a14 d0bc 2710 833f efe5 e9be 4b88 56be
000001c0: 4057 9ebe 6a0a 5c3e e2d9 9abf 2ed6 d7bf
000001d0: 7604 c0bb 7e78 0c3f a453 0ebe 56b4 babd
000001e0: fedd 1b40 5bba c43d 0f4f 883f d352 cd3f
000001f0: c3e2 ca3f f23a e83e 1cc4 2d3f 79a7 04bf
00000200: 47ca 32bf cb81 fdbe a0c7 83be 0f61 64bf
00000210: 21ea f2bd 1c2b cebf fd29 a8be 2721 013f
00000220: 1149 18bf f4ff d03f 74c5 853f aeff 093d
00000230: 1fa7 a3be b0d9 333f ea71 43bf 6128 303e
00000240: e729 05c0 4799 adbe 0bbf 8ebf 14cc 913f
00000250: 5798 8fbf 4487 8b3f 7805 673f a420 0ebf
00000260: 5998 cf3e 0f7d 3dbe dce6 23bf 38a7 283f
00000270: 360e ebbd 3610 d63f eda7 99be b0dc c93f
00000280: b977 d8bd 7df0 25be f88e 7c3f a15c 03bf
00000290: cdd1 44bd c5a9 d33f f264 393f 688c a1bd
000002a0: 8563 293e c240 2b3f 8f6e 52be 9be4 95bf
000002b0: 16ca b4bd 8bd1 cdbf 3314 96bd f881 9abe
000002c0: 2727 993f 457b 7dbe 8418 8f3e 4485 e4bf
000002d0: 5ca0 813f f647 333e 62ef eb3e abb1 563f
000002e0: b900 8ebe 4744 cdbf 64d3 47bf 9c8f 36c0
000002f0: 80d6 7f3f 7a6f da3e e938 11be 9b7e 32bf
00000300: 8359 153f 6679 1540 9dfd 8e3f 6341 a03f
00000310: cfe0 4e3f aff2 ffbf 1edc 3f3f d71a c93e
00000320: 1bb0 a7be b207 0d3f af29 8eb9 1f5d debe
00000330: cfe8 bc3f ea6b 89bf 8ffc c3be 2a86 50bd
00000340: ae18 e93d 6543 a33f f77a 43bf f858 253f
00000350: 935c 34bf 2a4e 6a3f 7d31 de3f 227c b3bf
00000360: 19a7 8f3e 515a c6bf 731b 2ebf 4006 e13e
00000370: 68e9 95be 57fc 8e3f 11ff 81be 178d 8b3e
00000380: e518 b8bf d7f5 c63d 6e2f 9dbf ea7f a03f
00000390: 3a5f acbe 950c 4abd 7afa b63f cf2f e53e
000003a0: 9b5e 0b3f 19aa 2b3e c689 1a3f 528b 3d3f
000003b0: 3ecd 603f 9a0d f2be c717 593f 2a7d 253f
000003c0: f7a8 05bf 50ec 8c3e d17d 02bf 1cf2 f5be
000003d0: 6358 9bbf 158d a1bf c609 89bf 09f8 eabf
000003e0: eee7 97bf 9a58 323f a2ad 633f 56f3 68bf
000003f0: 2b53 7d3f afa3 9d3e f4fb ebbf 4a81 563f

_cls_token f4 [1, 1, 8]
-1.317844 -0.9924525 1.4062363 -0.7179525 -0.9608663 0.58179724 0.21302 -0.0066120876
00000000: 1daf a8bf 5e11 7ebf 8dff b33f bccb 37bf
00000010: 55fb 75bf aaf0 143f ea21 5a3e 36aa d8bb

_patch_embedder.weight f4 [8, 1, 4, 4]
0.123462126 0.13935632 0.24342877 0.22850755 0.017126001 0.21941718 -0.079611525 0.052507114
0.05231619 0.20046772 -0.103866145 0.2563025 -0.08992132 0.10215038 0.056417942 -0.19022825
-0.234923 0.040062092 -0.098450415 0.34027833 -0.10265629 -0.14927286 -0.07028388 0.11901588
-0.3074577 0.003827951 -0.029793171 0.20365521 -0.35649875 0.13245033 0.09173461 -0.039096642
-0.04506656 -0.13824385 -0.25235102 0.15047505 -0.22163719 -0.05397661 0.023579102 0.0018624563
0.027235247 0.053655844 -0.059317507 -0.018197315 -0.14934753 -0.057070024 0.10890145 0.12897214
0.07760859 0.14449799 0.18352592 -0.04914644 0.08465258 0.115718715 0.06598603 0.069259204
0.042108018 -0.07636068 0.025743753 -0.071658246 -0.055081885 -0.12428865 0.08597744 -0.16533832
-0.039290316 0.046406757 -0.085919835 -0.19439065 0.08099354 -0.024778761 -0.12267863 -0.17149828
-0.164443 0.016934982 -0.098853044 -0.052463964 -0.039545387 0.04435041 -0.20981747 -0.16365293
0.15520945 0.08612296 -0.06609005 0.16032459 -0.01646159 0.06820572 0.08849052 -0.03257957
0.1731267 -0.0983904 0.17503716 -0.1005396 0.021383967 0.18542072 -0.091213085 0.09057422
-0.16268398 0.00070831826 -0.1893601 -0.22727191 -0.031000135 0.08504535 -0.17648973 -0.05885565
0.09524495 -0.0031251376 -0.024868542 0.055693045 0.18527092 -0.10603274 0.014139925 0.09868843
-0.026351536 -0.006664241 0.112651676 0.028276002 -0.013586383 0.13192679 0.16430855 0.20584275
-0.047110874 0.1992056 0.076394 0.07943805 0.30650687 0.32183617 0.24047388 0.2944399
00000000: b6d9 fc3d 6cb3 0e3e 6445 793e e2fd 693e
00000010: d44b 8c3c e6ae 603e 5e0b a3bd b311 573d
00000020: 8049 563d 6947 4d3e c6b7 d4bd 153a 833e
00000030: ab28 b8bd 3834 d13d 8016 673d 32cb 42be
00000040: a88f 70be 2618 243d 5fa0 c9bd f638 ae3e
00000050: 763d d2bd fcda 18be fff0 8fbd 99be f33d
00000060: 186b 9dbe 5cde 7a3b cf10 f4bc fe8a 503e
00000070: 0187 b6be 0fa1 073e 5bdf bb3d cd23 20bd
00000080: b797 38bd cc8f 0dbe 2734 81be 2216 1a3e
00000090: dcf4 62be 9416 5dbd f628 c13c aa1d f43a
000000a0: 741c df3c 3bc6 5b3d eaf6 72bd 8912 95bc
000000b0: 8fee 18be 42c2 69bd b907 df3d 4611 043e
000000c0: 41f1 9e3d 48f7 133e 38ee 3b3e c74d 49bd
000000d0: 555e ad3d effd ec3d af23 873d c5d7 8d3d
000000e0: 7579 2c3d fd62 9cbd 90e4 d23c 8fc1 92bd
000000f0: 8b9d 61bd 0c8b febd f114 b03d 734e 29be
00000100: e2ee 20bd 0315 3e3d bdf6 afbd 580e 47be
00000110: f1df a53d d4fc cabc ef3e fbbd 3f9d 2fbe
00000120: bf63 28be 3bbb 8a3c 7773 cabd 74e4 56bd
00000130: 58fa 21bd c7a8 353d 64da 56be a294 27be
00000140: 3aef 1e3e 3c61 b03d 385a 87bd 212c 243e
00000150: 75da 86bc 71af 8b3d 853a b53d 2872 05bd
00000160: 2048 313e e880 c9bd f13c 333e b5e7 cdbd
00000170: 6e2d af3c eede 3d3e edcd babd fa7e b93d
00000180: a196 26be 6fae 393a 9de7 41be f8b9 68be
00000190: fff3 fdbc 422c ae3d b9b9 34be 9f12 71bd
000001a0: c90f c33d 1ccf 4cbb 1db9 cbbc 641e 643d
000001b0: a9b7 3d3e b127 d9bd 25ab 673c 291d ca3d
000001c0: 2ddf d7bc b55f dabb ecb5 e63d 13a3 e73c
000001d0: 6c99 5ebc d117 073e 8040 283e 71c8 523e
000001e0: 55f7 40bd 8efc 4b3e 7574 9c3d 6bb0 a23d
000001f0: 78ee 9c3e b6c7 a43e c93e 763e d4c0 963e

_patch_embedder.bias f4 [8]
0.23008351 0.19474214 0.06999251 -0.09624522 -0.08639673 -0.20913434 0.12115297 0.20344934
00000000: 039b 6b3e 7c6a 473e 3c58 8f3d 371c c5bd
00000010: c5f0 b0bd 5027 56be 0c1f f83d 0655 503e

layers.0._attention._q_proj.weight f4 [8, 8]
0.1661984 0.023290733 -0.4881984 0.23997267 0.18196021 -0.49889517 0.10624136 0.26135662
0.23316403 -0.3676092 0.10602834 0.20717935 -0.25448424 -0.026337082 -0.0812251 0.005575327
0.15675521 0.043145422 -0.23034412 -0.020382289 0.36093813 -0.39552584 -0.23659061 -0.14480332
0.40005013 0.0728845 -0.016028112 0.30819428 -0.26983026 -0.27262583 -0.18983153 -0.041271903
-0.0018513337 0.16782734 -0.017612642 0.14300072 -0.11238273 0.27091867 0.30416903 0.15525392
-0.29055613 0.285222 -0.19791342 -0.11600512 0.12168995 0.22487687 0.23596957 -0.32845196
-0.024551913 0.08623309 -0.3500949 0.24035273 -0.12805516 0.012130987 0.10191921 0.21835168
0.061501577 0.34485552 -0.43404204 0.26111835 -0.19614916 -0.17427832 -0.028085323 0.055337783
00000000: ea2f 2a3e 35cc be3c 24f5 f9be 65bb 753e
00000010: c753 3a3e 306f ffbe 1295 d93d 89d0 853e
00000020: 8dc2 6e3e 4637 bcbe 6325 d93d d326 543e
00000030: c24b 82be ddc0 d7bc 5859 a6bd 3cb1 b63b
00000040: 7084 203e 41b9 303d 54df 6bbe c2f8 a6bc
00000050: e2cc b83e 5d82 cabe cf44 72be 5247 14be
00000060: 5fd3 cc3e 7844 953d 634d 83bc a4cb 9d3e
00000070: 3127 8abe 9d95 8bbe 3263 42be ba0c 29bd
00000080: 73a8 f2ba eeda 2b3e 6348 90bc c86e 123e
00000090: eb28 e6bd dab5 8a3e 0bbc 9b3e e2fa 1e3e
000000a0: c6c3 94be 9e08 923e d1a9 4abe 1894 edbd
000000b0: 9538 f93d 1f46 663e 02a2 713e db2a a8be
000000c0: 1821 c9bc f99a b03d a43f b3be 071f 763e
000000d0: e420 03be 0cc1 463c 05bb d03d 9597 5f3e
000000e0: 14e9 7b3d e790 b03e c23a debe 4eb1 853e
000000f0: 53db 48be 0476 32be 3113 e6bc dfa9 623d

layers.0._attention._q_proj.bias f4 [8]
0.3550531 -0.102248125 0.19175427 0.15176103 -0.022552134 -0.23531598 0.22616708 -0.042845167
00000000: 85c9 b53e 7767 d1bd 3b5b 443e 3e67 1b3e
00000010: 41bf b8bc acf6 70be 5898 673e 6a7e 2fbd

layers.0._attention._k_proj.weight f4 [8, 8]
0.44504136 -0.25448775 -0.049701523 0.09625373 0.05297408 -0.3710786 -0.46053147 0.031230642
-0.0013829523 -0.32087642 -0.264034 -0.13144809 0.40814942 0.24597852 0.18043272 -0.15346053
0.27770972 -0.07414278 -0.25579903 0.00053308794 -0.0573364 0.15345377 -0.34085682 0.26089212
0.36781058 0.3077039 -0.107999995 0.3398242 0.11373467 -0.30713233 0.10680021 0.3370877
-0.07144712 0.12482669 -0.025935065 0.065805204 -0.1106215 -0.22855553 0.1635761 0.2870485
0.21500055 0.40578482 0.015140176 -0.040310733 0.24112953 0.2653523 0.32087216 0.16143057
0.4077828 0.21167353 0.07832996 0.020023502 -0.015542494 0.11593592 -0.012008897 0.33183524
-0.022653326 0.25085494 -0.064142376 -0.22632942 -0.0755395 0.14639606 -0.42259008 -0.12915987
00000000: 76dc e33e 384c 82be d393 4bbd ad20 c53d
00000010: 59fb 583d 04fe bdbe c8ca ebbe 67d7 ff3c
00000020: 2e44 b5ba ea49 a4be 772f 87be 549a 06be
00000030: f6f8 d03e cbe1 7b3e 5bc3 383e c224 1dbe
00000040: f82f 8e3e 2bd8 97bd 17f8 82be edbe 0b3a
00000050: 93d9 6abd fc22 1d3e c984 aebe a793 853e
00000060: ab51 bc3e 5e8b 9d3e 1a2f ddbd 70fd ad3e
00000070: b9ed e83d 7340 9dbe 12ba da3d c296 ac3e
00000080: de52 92bd 23a5 ff3d c675 d4bc e1c4 863d
00000090: 868d e2bd 760a 6abe 7e80 273e 05f8 923e
000000a0: 1b29 5c3e 07c3 cf3e 800e 783c de1c 25bd
000000b0: a9ea 763e 42dc 873e 5b49 a43e 0e4e 253e
000000c0: e8c8 d03e f2c0 583e 756b a03d 5408 a43c
000000d0: f2a5 7ebc d06f ed3d f7c0 44bc 4fe6 a93e
000000e0: 7893 b9bc 0f70 803e 145d 83bd e6c2 67be
000000f0: 74b4 9abd d9e8 153e ba5d d8be 7c42 04be

layers.0._attention._k_proj.bias f4 [8]
-0.26985687 0.22538087 0.33159208 -0.23067158 -0.3500909 0.22073732 0.21617916 0.2146011
00000000: ae2a 8abe 3eca 663e 70c6 a93e 2c35 6cbe
00000010: 1d3f b3be f708 623e 125e 5d3e 64c0 5b3e

layers.0._attention._v_proj.weight f4 [8, 8]
-0.03309981 -0.23524089 -0.17899235 -0.030976139 -0.21820877 0.1977761 0.24016842 -0.27432266
0.22824278 0.19770294 -0.045616716 0.04439604 -0.09032154 -0.13854423 0.3137202 -0.36105052
0.33321968 0.0879825 0.2022063 -0.20324287 0.00033961318 -0.30184713 -0.01875855 -0.32652104
0.0029107155 -0.027321905 0.27747118 0.21165524 0.0011069266 0.14026125 0.04007022 -0.4029178
0.034122046 -0.089749366 -0.084946424 -0.08166492 -0.060694348 -0.15223043 -0.11910007 0.25233597
0.15801986 -0.15184808 0.27832627 -0.054005373 0.3404366 -0.19691034 0.23414887 0.034796257
-0.014336718 -0.15487216 -0.18554513 -0.17100208 0.16898198 -0.07089562 0.06390376 0.45434004
-0.2899572 -0.059967082 0.19133082 -0.29115576 -0.029101199 -0.34950832 0.31238392 0.18049543
00000000: ab93 07bd fde2 70be c549 37be acc1 fdbc
00000010: 1f72 5fbe d185 4a3e b6ee 753e 0574 8cbe
00000020: 7ab8 693e a472 4a3e 98d8 3abd 9fd8 353d
00000030: 80fa b8bd 8ade 0dbe ef9f a03e 9ddb b8be
00000040: c59b aa3e 2b30 b43d 2b0f 4f3e e61e 50be
00000050: 1c0e b239 b58b 9abe 88ab 99bc c42d a7be
00000060: b4c1 3e3b 30d2 dfbc b410 8e3e 27bc 583e
00000070: 4b16 913a a5a0 0f3e ac20 243d 3e4b cebe
00000080: 8fc3 0b3d 84ce b7bd 64f8 adbd f03f a7bd
00000090: a39a 78bd 4be2 1bbe bdea f3bd 2e32 813e
000000a0: f5cf 213e 107e 1bbe c880 8e3e bd34 5dbd
000000b0: b54d ae3e dda2 49be b9c4 6f3e 8586 0e3d
000000c0: 8ee4 6abc cf96 1ebe 8bff 3dbe 2b1b 2fbe
000000d0: 9d09 2d3e b931 91bd f9df 823d 429f e83e
000000e0: 4575 94be 0ba0 75bd 3aec 433e 5e12 95be
000000f0: a365 eebc c1f2 b2be c9f0 9f3e cbd3 383e

layers.0._attention._v_proj.bias f4 [8]
0.18887033 0.33306494 -0.16736338 0.29703128 -0.30955562 0.16368969 -0.11563756 -0.102568686
00000000: 3967 413e 7d87 aa3e 4e61 2bbe 7c14 983e
00000010: 137e 9ebe 459e 273e 63d3 ecbd 880f d2bd

layers.0._attention._o_proj.weight f4 [8, 8]
0.32362637 0.32996845 -0.16895118 -0.10636624 -0.25840172 -0.25515738 -0.16791715 -0.23766264
0.33591413 0.13264781 -0.26011467 0.14214121 0.14267774 0.17886576 0.23856762 0.022359036
-0.031990148 0.26999205 0.35716212 0.030833064 -0.23207138 -0.16211908 0.095367126 -0.11544765
0.10857685 -0.10418542 -0.12562121 -0.2528597 0.23975052 0.2046638 0.17118157 -0.21990103
-0.36538562 0.04016511 -0.11194844 -0.19099726 0.0862119 -0.14352843 0.1746056 0.37068254
-0.10759088 -0.0005147719 0.35873866 -0.17105891 0.22463909 0.15247382 0.40817934 0.017211022
-0.07599253 -0.22232115 -0.4154032 0.11126343 0.1643442 -0.27291515 0.15828998 -0.30366057
-0.18555649 -0.015685579 -0.08374472 0.3840869 -0.18040043 0.13318494 -0.36370444 0.0026084743
00000000: 5bb2 a53e a0f1 a83e 8a01 2dbe 8bd6 d9bd
00000010: 3b4d 84be fda3 82be 79f2 2bbe d65d 73be
00000020: f0fc ab3e d4d4 073e c02d 85be 778d 113e
00000030: 1d1a 123e 9628 373e 124b 743e 4c2a b73c
00000040: 1a08 03bd 663c 8a3e f4dd b63e 9f95 fc3c
00000050: 1fa4 6dbe 8b02 26be d74f c33d d16f ecbd
00000060: 8a5d de3d 2a5f d5bd d9a2 00be d476 81be
00000070: 2981 753e 6393 513e 394a 2f3e bc2d 61be
00000080: d313 bbbe 2c84 243d 3945 e5bd c994 43be
00000090: dd8f b03d 1ef9 12be cfcb 323e 1aca bd3e
000000a0: 9b58 dcbd c2f1 06ba 98ac b73e 112a 2fbe
000000b0: ca07 663e 1922 1c3e e2fc d03e 21fe 8c3c
000000c0: f9a1 9bbd 28a8 63be baaf d4be 15de e33d
000000d0: d949 283e 89bb 8bbe c516 223e 6679 9bbe
000000e0: 8502 3ebe 0b7f 80bc 5a82 abbd 0aa7 c43e
000000f0: e4ba 38be a261 083e 7837 babe f0f2 2a3b

layers.0._attention._o_proj.bias f4 [8]
0.30189034 -0.27659455 -0.27090004 0.08605168 0.30496573 -0.22908576 -0.2993176 -0.27180475
00000000: 5f91 9a3e cd9d 8dbe 69b3 8abe dd3b b03d
00000010: 7824 9c3e 7595 6abe 2840 99be fe29 8bbe

layers.0._norm1.weight f4 [8]
1.4051536 1.0420418 1.2109907 0.8903839 1.0124197 1.6236497 1.4942383 1.2998415
00000000: 13dc b33f a061 853f be01 9b3f 33f0 633f
00000010: f896 813f c1d3 cf3f 3343 bf3f 3561 a63f

layers.0._norm1.bias f4 [8]
0.00013431186 -3.340276e-05 2.3391005e-05 0.0001562314 4.3420812e-05 5.1705897e-06 -5.7623103e-05 -2.4816254e-05
00000000: 11d6 0c39 f119 0cb8 cd37 c437 0cd2 2339
00000010: be1e 3638 077f ad36 56b0 71b8 802c d0b7

layers.0._norm2.weight f4 [8]
0.86978877 1.0881754 1.1404759 0.9883639 1.4099046 1.2892207 1.2463307 1.0940993
00000000: 7aaa 5e3f 5549 8b3f 1dfb 913f 6b05 7d3f
00000010: c177 b43f 2f05 a53f c487 9f3f 720b 8c3f

layers.0._norm2.bias f4 [8]
-3.7160888e-05 4.537508e-05 -9.272454e-05 0.00020004518 3.4379034e-05 0.0001649864 -8.599858e-05 -0.00033105613
00000000: 33dd 1bb8 1f51 3e38 1c75 c2b8 38c3 5139
00000010: 3532 1038 3300 2d39 235a b4b8 9a91 adb9

layers.0._mlp.0.weight f4 [32, 8]
-0.15063375 -0.14994708 -0.3842239 0.37634724 -0.31532627 0.06605583 -0.005601412 -0.23712394
0.17085126 -0.1394258 -0.05815677 -0.18422247 -0.0034285956 -0.22803606 0.21439645 -0.16847394
-0.10128047 0.10549064 0.022609154 0.26231727 -0.1958545 0.07828085 0.010540503 -0.24158604
0.20867412 0.09825371 -0.16538098 0.07747464 -0.00090343365 0.06822893 0.11351652 -0.25884968
0.22467493 0.053068124 -0.19081336 -0.28304031 -0.17634723 0.0065874 0.32412693 -0.36132568
0.33164486 0.3402671 -0.103314005 -0.078027196 0.31306237 -0.16927016 0.06840435 0.08674402
-0.04832823 0.2970147 0.14646856 0.14009131 0.40147796 0.31349683 0.2404275 -0.3596328
0.1349631 -0.201838 0.19103926 -0.18596447 0.34803987 -0.017275184 -0.38107622 -0.06693393
0.20083965 -0.31571218 0.21576902 0.07369681 -0.25971714 -0.19335021 -0.3697887 0.06554147
0.06293696 0.26619986 -0.14079325 0.013982321 -0.020666897 -0.24315378 -0.16823961 0.0071635228
-0.27897784 0.22775096 -0.11870657 -0.042576637 -0.13707258 -0.00052194897 0.1909739 -0.0025540027
0.013446287 -0.31926122 0.20431086 0.40950802 0.32360113 -0.37335914 -0.3260889 -0.19513915
0.10531922 0.30300322 0.13518332 0.24996372 0.100962125 -0.04116803 -0.34190854 -0.14480533
-0.18658027 -0.02910551 0.258014 -0.15387481 -0.2576837 -0.13571386 -0.023827104 -0.32395855
0.21583551 0.20083162 0.009601405 -0.15722373 -0.2954003 -0.30253083 0.00067646516 0.21451509
-0.022656461 0.001750201 -0.3016533 0.14478002 0.33890706 0.3389317 -0.23978469 -0.07456553
-0.014465471 -0.10742424 -0.073866144 0.12830923 -0.13788098 -0.023647655 -0.3214855 -0.34479284
0.21065666 -0.033674832 -0.08952052 -0.010436844 -0.12328623 -0.19862346 0.39962646 -0.22221239
0.2310401 0.18380801 -0.25688177 -0.2260271 0.24618934 -0.33299404 0.074734695 0.012178248
0.04284386 0.10259802 -0.16990443 0.1399783 -0.14738367 0.11024406 0.033008717 -0.3081092
0.2897244 0.25499025 0.24383417 -0.15411305 -0.1299302 -0.17394687 -0.107194774 0.14917278
0.29205862 0.22567312 -0.071004346 -0.223998 -0.30767986 0.04009221 0.10698934 0.27574235
-0.15814658 -0.22475077 -0.37594473 0.25302088 -0.06381498 0.33014974 0.1649183 0.14804445
0.13457783 -0.07135224 -0.12309938 -0.22486852 -0.15424196 -0.057712883 -0.01734414 -0.12709896
0.04874881 0.2264557 0.251244 0.100124426 0.19173983 0.3610449 0.006206451 0.0034458207
-0.13083608 0.008029616 0.26131752 0.05360364 -0.17830215 -0.18460988 0.108902104 0.062661484
-0.20375632 -0.24087785 -0.2309242 -0.096041426 -0.18069397 0.08656852 0.13070084 0.07246723
-0.0757808 0.2051998 0.0037758155 -0.0068851355 0.31241092 0.17479423 -0.09512624 -0.19156732
-0.0823067 -0.17415248 0.2405404 -0.23314168 0.2632458 -0.2262921 0.004406738 0.0850457
0.03715238 0.34494615 0.320161 -0.028231798 -0.36891747 -0.18159822 0.037287313 0.14035265
0.13585807 -0.11468409 0.29753172 0.17193513 0.26456928 -0.058329277 0.113354474 -0.0673138
-0.15075412 0.014259877 -0.12894036 0.2602147 -0.12948865 -0.10310963 0.11936615 0.37350547
00000000: bc3f 1abe ba8b 19be ffb8 c4be 96b0 c03e
00000010: 7272 a1be 4748 873d 0d8c b7bb 9ed0 72be
00000020: a2f3 2e3e a3c5 0ebe cb35 6ebd d1a4 3cbe
00000030: 4ab2 60bb 4982 69be be8a 5b3e 6f84 2cbe
00000040: 236c cfbd 7a0b d83d d536 b93c 734e 863e
00000050: 158e 48be b651 a03d 13b2 2c3c 5562 77be
00000060: abae 553e 3e39 c93d a259 29be 06ab 9e3d
00000070: 68d4 6cba 9cbb 8b3d 597b e83d f287 84be
00000080: 2f11 663e f65d 593d 9464 43be a9ea 90be
00000090: 5e94 34be 1edb d73b f7f3 a53e aeff b8be
000000a0: 5bcd a93e 7d37 ae3e 4b96 d3bd b9cc 9fbd
000000b0: b649 a03e 2855 2dbe 9417 8c3d d9a6 b13d
000000c0: d2f3 45bd 5012 983e dbfb 153e 1974 0f3e
000000d0: 858e cd3e a882 a03e a032 763e ca21 b8be
000000e0: c433 0a3e 9fae 4ebe cc9f 433e 786d 3ebe
000000f0: 4832 b23e b084 8dbc 6c1c c3be a814 89bd
00000100: e9a8 4d3e 07a5 a1be 8ef2 5c3e 5aee 963d
00000110: a5f9 84be 99fd 45be f254 bdbe 9b3a 863d
00000120: 18e5 803d 594b 883e 1b2c 10be 1b16 653c
00000130: a04d a9bc 4efd 78be 0147 2cbe fcbb ea3b
00000140: 2fd6 8ebe 8c37 693e 6e1c f3bd d764 2ebd
00000150: c15c 0cbe 67d3 08ba a98e 433e 0e61 27bb
00000160: d14d 5c3c 3576 a3be de36 513e 09ab d13e
00000170: 0caf a53e ee28 bfbe 20f5 a6be 8fd2 47be
00000180: 9ab1 d73d 3d23 9b3e 7f6d 0a3e 7df6 7f3e
00000190: 3bc5 ce3d cf9f 28bd a30e afbe d947 14be
000001a0: e60e 3fbe ae6e eebc 691a 843e 5c91 1dbe
000001b0: 1eef 83be 93f8 0abe 0f31 c3bc e5dd a5be
000001c0: fc03 5d3e cea6 4d3e 364f 1d3c 42ff 20be
000001d0: b53e 97be 52e5 9abe cf54 313a d8a9 5b3e
000001e0: 0b9a b9bc 0067 e53a 4d72 9abe 3741 143e
000001f0: 3a85 ad3e 7588 ad3e 1e8a 75be d0b5 98bd
00000200: 9500 6dbc 3d01 dcbd 2247 97bd 7f63 033e
00000210: ac30 0dbe bab8 c1bc bf99 a4be b088 b0be
00000220: 61b6 573e 9fee 09bd 8956 b7bd 4cff 2abc
00000230: 7e7d fcbd f363 4bbe d79b cc3e a58b 63be
00000240: c795 6c3e 2b38 3c3e 0286 83be a673 67be
00000250: 0f19 7c3e 327e aabe 810e 993d 4687 473c
00000260: 0b7d 2f3d e91e d23d 6dfb 2dbe 7956 0f3e
00000270: bfeb 16be a3c7 e13d 2634 073d 7dc0 9dbe
00000280: c256 943e 158e 823e aaaf 793e d0cf 1dbe
00000290: 6c0c 05be 211f 32be ef88 dbbd c0c0 183e
000002a0: b588 953e db16 673e ba6a 91bd bb5f 65be
000002b0: 3788 9dbe bb37 243d 3a1d db3d 1a2e 8d3e
000002c0: 2df1 21be 1125 66be d47b c0be f48b 813e
000002d0: 6eb1 82bd 6309 a93e 58e0 283e f798 173e
000002e0: c5ce 093e 2021 92bd 871b fcbd ef43 66be
000002f0: 9bf1 1dbe 5864 6cbd 4c15 8ebc 3b26 02be
00000300: d5ac 473d 01e4 673e 0ea3 803e 090e cd3d
00000310: 7257 443e e1da b83e 7c5f cb3b 47d3 613b
00000320: e5f9 05be a78e 033c 69cb 853e 7e8f 5b3d
00000330: d794 36be 5f0a 3dbe 1108 df3d aa54 803d
00000340: 7fa5 50be afa8 76be 6577 6cbe 5eb1 c4bd
00000350: d707 39be d64a b13d 71d6 053e b369 943d
00000360: f732 9bbd e51f 523e ac73 773b b49c e1bb
00000370: 53f4 9f3e 42fd 323e 8cd1 c2bd 392a 44be
00000380: 6a90 a8bd 0755 32be 3950 763e b1bc 6ebe
00000390: 27c8 863e 1eb9 67be 6666 903b 712c ae3d
000003a0: 182d 183d c89c b03e 25ec a33e 5f46 e7bc
000003b0: c0e2 bcbe e2f4 39be 95ba 183d 9bb8 0f3e
000003c0: 611e 0b3e 7edf eabd 1456 983e c30f 303e
000003d0: a075 873e aeea 6ebd 6426 e83d d1db 89bd
000003e0: 4a5f 1abe 42a2 693c f108 04be dc3a 853e
000003f0: ac98 04be 242b d3bd 3d76 f43d 1c3c bf3e

layers.0._mlp.0.bias f4 [32]
-0.23105791 -0.006072674 0.23763749 -0.2809947 -0.24784246 -0.16546516 0.09942935 0.10767154
0.34716702 0.037914705 -0.23284973 0.0785975 0.09667776 0.3173263 -0.2434567 -0.15013453
-0.09525621 -0.07695515 -0.034063395 -0.16226198 -0.16294742 0.29578313 -0.13028356 0.29726937
0.30181924 -0.0025210052 -0.16154948 -0.26835626 0.025575647 -0.2055273 0.20469593 -0.07223349
00000000: 729a 6cbe 48fd c6bb 3e57 733e 8ade 8fbe
00000010: 6aca 7dbe b36f 29be 9da1 cb3d e582 dc3d
00000020: e0bf b13e 734c 1b3d 2970 6ebe baf7 a03d
00000030: fdfe c53d 9878 a23e b74c 79be debc 19be
00000040: b015 c3bd a99a 9dbd 0f86 0bbd 0128 26be
00000050: b0db 26be e370 973e 0e69 05be b133 983e
00000060: 0d88 9a3e 7337 25bb 3a6d 25be fe65 89be
00000070: 0584 d13c c075 52be cf9b 513e 27ef 93bd

layers.0._mlp.2.weight f4 [8, 32]
0.07959237 0.014036728 0.031104336 -0.17199793 -0.17318842 -0.12888165 -0.015746718 -0.12258586
0.04208949 0.061023653 -0.15937065 0.023688631 0.103688836 0.064389914 -0.036312528 0.11160902
-0.13384013 -0.05772577 -0.026359787 0.06389213 -0.10859866 -0.11015392 0.10077151 -0.08103154
-0.07544256 -0.0072535365 -0.051500596 -0.04758713 0.17177248 0.045518402 0.062139004 0.06639069
-0.17121625 0.019067576 -0.13411407 -0.07698444 0.011862726 0.05347047 -0.17972751 0.11797444
0.109446846 -0.1326656 0.1584396 0.05765583 -0.02963821 0.05807434 0.16398959 -0.18484402
-0.05720693 -0.017242437 0.15239166 0.024833566 -0.052580614 0.16884096 -0.02407068 -0.17852138
0.0027135205 0.07106192 0.11543845 0.12597834 -0.043259703 -0.11933191 -0.033875518 0.14894943
0.060315873 -0.07264937 0.07309627 0.032531377 -0.010153256 0.13792811 0.14573504 -0.14087783
0.15208368 -0.094866775 -0.10368434 0.07651985 0.12576161 0.0202088 0.00046533512 0.1141199
-0.022849899 0.0032042912 -0.12740041 -0.029476896 0.16099556 0.076841615 -0.056665443 -0.12232242
0.041079037 0.058396887 -0.021171637 0.19602051 -0.09867013 0.044953242 -0.16351789 0.0386762
-0.099556565 -0.09403635 0.11568232 -0.09270476 -0.08900575 -0.026346304 0.11393411 -0.02323387
0.11457567 -0.08913877 0.09230833 -0.10207199 0.07141064 0.053455908 -0.13388011 0.028018408
0.00042658547 -0.0348129 0.139965 -0.13443819 0.07250189 0.05264561 0.12080536 0.054633655
0.057522148 0.06705466 -0.07955476 -0.028578427 -0.027998012 -0.093622565 0.09029743 0.027760461
0.027247006 -0.1718922 0.0135318 0.09793744 -0.12356372 0.0230418 0.10938943 0.0011035705
-0.029693775 -0.13540284 -0.12741533 -0.05470926 -0.10709596 -0.05421938 -0.08283158 -0.0915417
0.15954539 0.027740387 0.1637593 0.16110203 0.16950461 -0.07323189 -0.012867431 -0.10537185
-0.1442438 0.04971277 0.028435959 0.12820418 -0.12671609 -0.039736696 -0.1782215 0.04865365
0.034218322 0.07227998 -0.016999377 0.1480246 -0.05346065 0.17938372 0.008927751 0.09593534
-0.058792144 -0.074500225 0.14097324 0.15046033 -0.099365525 -0.06187035 0.17998286 0.06617637
0.15286022 0.038879037 0.1380388 0.16081281 0.058672912 -0.047577757 0.10438103 -0.06148898
-0.09361998 0.117359236 0.115895614 -0.098749794 -0.08469237 0.04997783 -0.16432257 -0.023323081
0.06680028 -0.02636709 -0.057548173 -0.04798837 0.1424877 0.084356286 0.0808418 0.10157131
0.06219585 0.0693835 0.10008951 -0.0824794 0.07813899 -0.15381317 0.10448155 -0.05529349
0.11200261 -0.055203523 -0.17052707 -0.038272843 -0.06975181 -0.09167616 0.17407909 -0.16320282
-0.16231616 0.14137 -0.033409894 -0.0551548 -0.053244818 0.18594037 -0.01683225 -0.024810718
-0.1098311 0.00047075114 0.16006513 0.044389576 -0.10106838 0.0028118636 -0.09006686 -0.021481205
-0.05060151 0.07709429 0.04664905 0.04534181 0.12403839 0.041195713 0.013765315 -0.11483068
0.0260129 0.09147087 0.0176871 0.12625675 0.03735636 -0.12523918 0.1656186 -0.064835005
0.13315398 -0.12015412 0.09369935 -0.11875038 -0.13736211 0.15669368 0.05059204 -0.025002284
00000000: 5301 a33d 4efa 653c 85ce fe3c 3a20 30be
00000010: 4e58 31be 8df9 03be 43ff 80bc 4c0e fbbd
00000020: 0766 2c3d f0f3 793d 0f32 23be a90e c23c
00000030: d05a d43d dcde 833d 72bc 14bd 4593 e43d
00000040: 630d 09be db71 6cbd 7bf0 d7bc e1d9 823d
00000050: f968 debd 6198 e1bd 4b61 ce3d ddf3 a5bd
00000060: a181 9abd 13af edbb 4af2 52bd b9ea 42bd
00000070: 20e5 2f3e 8171 3a3d 7885 7e3d d8f7 873d
00000080: 5053 2fbe 9b33 9c3c 3355 09be 05aa 9dbd
00000090: e15b 423c da03 5b3d 7d0a 38be 959c f13d
000000a0: ab25 e03d 7ed9 07be fe3d 223e 8528 6c3d
000000b0: d5cb f2bc 5cdf 6d3d e3ec 273e c047 3dbe
000000c0: d051 6abd 0340 8dbc 8f0c 1c3e c36f cb3c
000000d0: c55e 57bd a5e4 2c3e e02f c5bc 4fce 36be
000000e0: 52d5 313b e988 913d fe6a ec3d 7700 013e
000000f0: 1631 31bd 4a64 f4bd 0ec1 0abd 3386 183e
00000100: c70d 773d 31c9 94bd 7fb3 953d 9f3f 053d
00000110: d859 26bc 073d 0d3e 913b 153e 4742 10be
00000120: d3bb 1b3e 8349 c2bd 7558 d4bd 70b6 9c3d
00000130: a7c7 003e ed8c a53c 39f8 f339 b2b7 e93d
00000140: b62f bbbc 16ff 513b 4175 02be 8879 f1bc
00000150: 05dc 243e 235f 9d3d 061a 68bd 2d84 fabd
00000160: 7e42 283d 9331 6f3d 2470 adbc 9ab9 483e
00000170: 9113 cabd e420 383d 3c71 27be ef6a 1e3d
00000180: 50e4 cbbd 2196 c0bd daea ec3d fedb bdbd
00000190: a648 b6bd 34d4 d7bc 4956 e93d f554 bebc
000001a0: a6a6 ea3d 638e b6bd 260c bd3d 1f0b d1bd
000001b0: be3f 923d 95f4 5a3d de17 09be dc86 e53c
000001c0: 55a7 df39 f997 0ebd fc52 0f3e 2aaa 09be
000001d0: df7b 943d eca2 573d cd68 f73d 8ac7 5f3d
000001e0: 589c 6b3d f453 893d 9bed a2bd 4e1d eabc
000001f0: 165c e5bc 30bd bfbd dced b83d e869 e33c
00000200: 1d35 df3c 8204 30be 7cb4 5d3c 6d93 c83d
00000210: fa0e fdbd 28c2 bc3c 9107 e03d aea5 903a
00000220: 5c40 f3bc 0ba7 0abe 2a79 02be d116 60bd
00000230: 2055 dbbd 2415 5ebd 9aa3 a9bd 377a bbbd
00000240: de5f 233e cf3f e33c 85b0 273e eef7 243e
00000250: 9e92 2d3e 9afa 95bd ebd1 52bc 32cd d7bd
00000260: a6b4 13be 9e9f 4b3d 87f2 e83c f547 033e
00000270: ddc1 01be f2c2 22bd b27f 36be 0d49 473d
00000280: 8328 0c3d 8707 943d 4742 8bbc c393 173e
00000290: 8ef9 5abd 5eb0 373e b445 123c bf79 c43d
000002a0: 08d0 70bd 9393 98bd 4a5b 103e 4612 1a3e
000002b0: 2780 cbbd c46b 7dbd 6d4d 383e 7a87 873d
000002c0: 6487 1c3e a03f 1f3d 0b5a 0d3e 1dac 243e
000002d0: 0253 703d e5e0 42bd b9c5 d53d dedb 7bbd
000002e0: d5bb bfbd 0a5a f03d ae5a ed3d 553d cabd
000002f0: 3173 adbd 8eb5 4c3d 2d44 28be 0c10 bfbc
00000300: 96ce 883d ccff d7bc a2b7 6bbd 748f 44bd
00000310: 4ce8 113e fdc2 ac3d 6390 a53d 9e04 d03d
00000320: 13c1 7e3d f018 8e3d bbfb cc3d f6ea a8bd
00000330: 5607 a03d 3381 1dbe 6cfa d53d 6d7b 62bd
00000340: a061 e53d 171d 62bd a69e 2ebe fcc3 1cbd
00000350: 09da 8ebd b6c0 bbbd ca41 323e a41e 27be
00000360: 3536 26be 4cc3 103e d0d8 08bd 00ea 61bd
00000370: 3d17 5abd 2767 3e3e c9e3 89bc d93f cbbc
00000380: 21ef e0bd 26cf f639 1de8 233e d8d1 353d
00000390: f0fc cebd 3e47 383b f974 b8bd 5af9 afbc
000003a0: 8743 4fbd 9ce3 9d3d 1313 3f3d 55b8 393d
000003b0: d707 fe3d d6bc 283d ea87 613c 592c ebbd
000003c0: 0119 d53c 1455 bb3d 8ae4 903c 7349 013e
000003d0: fc02 193d b33e 00be ec97 293e 37c8 84bd
000003e0: 8459 083e 5d13 f6bd 72e5 bf3d 6633 f3bd
000003f0: a7a8 0cbe 4f74 203e 9939 4f3d 97d1 ccbc

layers.0._mlp.2.bias f4 [8]
0.018754167 -0.13224512 0.124397665 0.1334748 -0.08533913 0.04751436 -0.06732955 -0.09424688
00000000: 57a2 993c 446b 07be 34c4 fe3d 9ead 083e
00000010: 48c6 aebd 6b9e 423d 13e4 89bd 8204 c1bd

layers.1._attention._q_proj.weight f4 [8, 8]
-0.22881159 0.08874422 -0.30846572 0.1310316 0.07452686 0.05111994 -0.13785614 -0.2885563
-0.27949837 -0.23156002 0.1855378 -0.05224245 0.34096506 0.1240672 -0.1991483 0.14076777
-0.27169228 -0.045381654 0.15815084 -0.28641605 -0.1685451 -0.02979255 -0.2472576 -0.012806917
-0.30080533 -0.30439508 -0.12507384 0.016308498 -0.14207475 0.14397432 0.2821078 -0.25342005
-0.21560875 0.35080767 0.1665616 -0.036052424 -0.28587177 -0.27990887 0.03288701 -0.03440555
0.28799188 0.09830714 0.16779217 -0.3426683 -0.23278171 0.07341844 -0.19824317 0.10817074
-0.10327299 0.099957176 -0.0019495703 -0.18904132 0.054062434 -0.18300976 -0.33146384 -0.04108236
0.21461344 0.1825857 -0.019147623 -0.23121816 -0.15764105 -0.36252937 -0.26393622 0.08609824
00000000: 964d 6abe 88bf b53d 38ef 9dbe 262d 063e
00000010: 8aa1 983d 2463 513d 292a 0dbe a7bd 93be
00000020: 691a 8fbe 121e 6dbe 9ffd 3d3e 2efc 55bd
00000030: f992 ae3e f216 fe3d 88ed 4bbe 6d25 103e
00000040: 401b 8bbe 1de2 39bd 4bf2 213e 20a5 92be
00000050: 1697 2cbe 810f f4bc 1931 7dbe 1ad4 51bc
00000060: 2803 9abe acd9 9bbe 5b13 00be 6699 853c
00000070: 0b7c 11be 016e 133e 6f70 903e 46c0 81be
00000080: 8ac8 5cbe 109d b33e 208f 2a3e b5ab 13bd
00000090: c95d 92be 3750 8fbe 88b4 063d d6ec 0cbd
000000a0: ac73 933e 4155 c93d b6d1 2b3e 3872 afbe
000000b0: 545e 6ebe 685c 963d 4200 4bbe 9f88 dd3d
000000c0: ca80 d3bd 59b6 cc3d b988 ffba 0c94 41be
000000d0: 9270 5d3d e966 3bbe a1b5 a9be fa45 28bd
000000e0: a0c3 5b3e bff7 3a3e 7adb 9cbc 74c4 6cbe
000000f0: a86c 21be 739d b9be a622 87be 4654 b03d

layers.1._attention._q_proj.bias f4 [8]
-0.36124822 0.0816297 -0.24941926 -0.28180233 -0.08340576 0.22662775 0.19281562 -0.2938385
00000000: 87f5 b8be 792d a73d c367 7fbe 6548 90be
00000010: a4d0 aabd 1b11 683e 7571 453e 0072 96be

layers.1._attention._k_proj.weight f4 [8, 8]
0.318459 -0.094717324 -0.17180863 -0.29197863 -0.06960119 -0.31968758 -0.23125362 0.32598704
-0.04219274 0.36400518 0.30617705 0.038228564 0.35618046 -0.2092065 0.10921032 0.25531685
0.13814169 -0.13394512 0.1522755 -0.046168737 0.21863763 -0.004536213 -0.17519076 0.19311617
-0.13921343 -0.25195983 0.28866008 -0.3235505 0.20690723 0.22052689 0.16733906 0.37889495
-0.09241975 0.25430527 0.036340687 -0.06724742 0.08468154 0.2482799 -0.24593972 0.109932505
-0.34206837 0.37315053 -0.12144378 -0.096934915 0.31545752 -0.022957379 0.0973071 0.14218712
-0.28454876 -0.08261088 0.14411943 -0.1714844 -0.21168125 -0.029832093 0.3179072 -0.4249991
0.2656667 0.21638699 -0.27599227 -0.06771261 0.24656247 0.1535611 0.17359762 -0.22459862
00000000: 0f0d a33e 28fb c1bd 9aee 2fbe 397e 95be
00000010: 128b 8ebd 17ae a3be c0cd 6cbe c6e7 a63e
00000020: 4bd2 2cbd e35e ba3e 3dc3 9c3e 8e95 1c3d
00000030: 495d b63e 3b3a 56be a9a9 df3d e4b8 823e
00000040: 0475 0d3e e928 09be 1cee 1b3e 6e1b 3dbd
00000050: 8be2 5f3e 83a4 94bb 3565 33be 3fc0 453e
00000060: f78d 0ebe e100 81be 41cb 933e 69a8 a5be
00000070: 7ddf 533e cdd1 613e ee5a 2b3e 85fe c13e
00000080: 9146 bdbd 4d34 823e f9d9 143d 04b9 89bd
00000090: 846d ad3d 163d 7e3e 9fd7 7bbe 4b24 e13d
000000a0: 9623 afbe 960d bf3e 84b7 f8bd d085 c6bd
000000b0: a683 a13e 1d11 bcbc f248 c73d 8099 113e
000000c0: 60b0 91be e52f a9bd 0b94 133e 9b99 2fbe
000000d0: f8c2 58be 6f62 f4bc bcc4 a23e 7b99 d9be
000000e0: 7705 883e 8d94 5d3e dc4e 8dbe e9ac 8abd
000000f0: df7a 7c3e 1f3f 1d3e 93c3 313e 2efd 65be

layers.1._attention._k_proj.bias f4 [8]
0.32808763 -0.11938433 -0.23133053 0.20530131 -0.08076594 0.07516922 0.1353289 -0.049324546
00000000: 1afb a73e c67f f4bd e9e1 6cbe 823a 523e
00000010: 9d68 a5bd 52f2 993d a993 0a3e 8908 4abd

layers.1._attention._v_proj.weight f4 [8, 8]
-0.2998825 0.21810403 -0.31844634 0.01164831 -0.38036805 0.18794993 0.2254432 -0.25206548
0.37662125 -0.10615214 -0.18671042 -0.21102133 -0.2472918 -0.12988298 -0.31280506 -0.04589041
0.30927527 -0.30771577 -0.019053994 0.29455566 -0.13751644 0.38649297 0.14569488 0.06624789
-0.15647215 -0.08326483 -0.085260965 -0.022747383 -0.061147504 0.36570355 -0.08211684 -0.015963444
-0.1612781 -0.24370591 -0.103588164 0.18025751 -0.45835665 0.08017767 0.26969305 -0.37806553
0.39629447 0.09794324 -0.08194095 -0.20739205 0.1428896 -0.2500746 0.0048629236 -0.1747681
-0.062178276 0.003766626 0.054206587 0.075547025 0.36837828 -0.019975875 0.18672729 -0.25302732
-0.19811168 0.34778407 0.27001303 -0.06684189 -0.009544133 -0.19806099 -0.32463762 -0.22037093
00000000: 338a 99be aa56 5f3e 660b a3be 8ed8 3e3c
00000010: 9abf c2be f275 403e 95da 663e ba0e 81be
00000020: 80d4 c03e 4b66 d9bd 0431 3fbe fa15 58be
00000030: 103a 7dbe 0b00 05be fc27 a0be 95f7 3bbd
00000040: 5459 9e3e ec8c 9dbe 1f17 9cbc 00d0 963e
00000050: 1cd1 0cbe 68e2 c53e 0a31 153e f9ac 873d
00000060: 3c3a 20be c086 aabd 4d9d aebd b858 babc
00000070: ce75 7abd 7f3d bb3e e02c a8bd c5c5 82bc
00000080: 1626 25be 0b8e 79be 0826 d4bd 6d95 383e
00000090: b9ad eabe 3134 a43d 3515 8a3e ce91 c1be
000000a0: 1ce7 ca3e 7796 c83d a8d0 a7bd 955e 54be
000000b0: a751 123e c709 80be 2959 9f3b 69f6 32be
000000c0: a6ae 7ebd 7fd9 763b ba07 5e3d 66b8 9a3d
000000d0: 149c bc3e 72a4 a3bc 7035 3f3e cc8c 81be
000000e0: cadd 4abe c110 b23e 263f 8a3e 67e4 88bd
000000f0: ff5e 1cbc 80d0 4abe e736 a6be eba8 61be

layers.1._attention._v_proj.bias f4 [8]
-0.2273803 -0.0370132 -0.108498454 -0.0809962 -0.03203502 -0.31057224 -0.027273962 -0.2629688
00000000: 62d6 68be 279b 17bd 7034 debd 56e1 a5bd
00000010: 2737 03bd 5303 9fbe a56d dfbc d9a3 86be

layers.1._attention._o_proj.weight f4 [8, 8]
-0.11395626 -0.0011358069 -0.07511778 -0.24178135 -0.38755292 -0.106738 0.038621638 0.38887197
0.24587628 0.13827933 0.33505827 0.16843988 0.052861635 -0.40540186 -0.36029646 0.06750625
-0.2578127 -0.26370764 0.34304973 -0.2384269 0.4659404 -0.3451197 0.054184623 0.15785211
-0.008616871 -0.15242305 0.22706603 -0.2791696 0.12721236 -0.388577 -0.30426452 -0.19189547
0.061082747 -0.058710173 0.36243388 0.20022364 -0.30104488 0.03050692 -0.2817126 -0.10846481
0.2073344 -0.19166665 0.22412916 -0.075893566 0.015764304 -0.29198664 -0.26274902 -0.01655509
0.32983744 0.20081128 0.0901178 0.011791181 0.36803454 0.33187208 -0.0009721802 -0.10114025
0.19377944 -0.21923923 -0.19308412 -0.35277423 -0.04224054 -0.24636891 -0.21726912 0.2986492
00000000: e661 e9bd 5bdf 94ba 5ad7 99bd 8895 77be
00000010: 566d c6be 7499 dabd b931 1e3d 3a1a c73e
00000020: fec6 7b3e 1999 0d3e c28c ab3e 817b 2c3e
00000030: 7185 583d d590 cfbe c778 b8be b840 8a3d
00000040: 0700 84be b004 87be 37a4 af3e 2e26 74be
00000050: bd8f ee3e 88b3 b0be b2f0 5d3d fca3 213e
00000060: c72d 0dbc ca14 1cbe ff83 683e 51ef 8ebe
00000070: f543 023e 91f3 c6be 8fc8 9bbe 3f80 44be
00000080: e731 7a3d 147a 70bd ef90 b93e 6d07 4d3e
00000090: 8e22 9abe a6e9 f93c a23c 90be cc22 debd
000000a0: 784f 543e 4344 44be 1d82 653e 166e 9bbd
000000b0: 2424 813c 467f 95be 0a87 86be 8a9e 87bc
000000c0: 74e0 a83e 79a1 4d3e ae8f b83d cc2f 413c
000000d0: 066f bc3e 23eb a93e e9d9 7eba 9f22 cfbd
000000e0: 1e6e 463e 4080 60be d8b7 45be d39e b4be
000000f0: 6b04 2dbd 2248 7cbe cc7b 5ebe 8ce8 983e

layers.1._attention._o_proj.bias f4 [8]
0.009392412 0.36570626 -0.18118204 0.19270131 0.043602873 0.10769308 0.08618355 -0.232787
00000000: a2e2 193c da3d bb3e c987 39be 7e53 453e
00000010: ed98 323d 318e dc3d 0081 b03d b75f 6ebe

layers.1._norm1.weight f4 [8]
1.2247984 1.2212853 1.3009725 1.2258928 1.6529765 1.4623488 1.0876139 1.370435
00000000: 32c6 9c3f 1453 9c3f 4486 a63f 0eea 9c3f
00000010: bc94 d33f 3f2e bb3f ef36 8b3f 6a6a af3f

layers.1._norm1.bias f4 [8]
-4.1357074e-05 4.8055805e-05 5.3317028e-05 -8.608256e-05 -6.850564e-06 -3.8058814e-05 -3.053777e-05 2.3292849e-05
00000000: d276 2db8 878f 4938 b9a0 5f38 3987 b4b8
00000010: e6dd e5b6 57a1 1fb8 ae15 00b8 0365 c337

layers.1._norm2.weight f4 [8]
1.0874711 1.0164491 1.3405682 0.8648029 0.9377782 1.1726868 0.97857535 1.1632395
00000000: 4132 8b3f 011b 823f bd97 ab3f b963 5d3f
00000010: 3b12 703f 9a1a 963f ea83 7a3f 08e5 943f

layers.1._norm2.bias f4 [8]
7.966737e-05 6.174118e-05 -3.8767746e-05 5.363378e-05 -2.1635216e-05 0.00012212124 2.5485659e-05 -7.664683e-05
00000000: 1813 a738 0b7b 8138 8d9a 22b8 d5f4 6038
00000010: 467d b5b7 ac0d 0039 09ca d537 74bd a0b8

layers.1._mlp.0.weight f4 [32, 8]
-0.15131712 -0.17234498 0.27162302 -0.031836763 0.12567598 -0.2631989 0.060759507 -0.05487702
0.23888895 0.2144913 -0.10037803 0.10771661 -0.29534736 0.3221243 0.23481727 -0.37538588
-0.08697908 0.09573233 -0.03757731 0.30124518 0.32878777 0.031791933 0.18893577 -0.23437542
-0.002107477 -0.008301551 0.21453364 -0.23744926 0.3807745 0.15871102 -0.22268029 -0.31958944
-0.39243078 -0.14818697 -0.17746383 0.13092715 0.30114365 -0.07248087 -0.08218096 0.26841208
0.2106179 0.0759794 -0.12233827 0.1325869 -0.1735212 -0.2744625 0.037960075 -0.08943132
0.05913192 0.15976654 0.29921293 -0.010179051 0.234757 -0.08028562 -0.25756544 -0.26946336
-0.3358552 0.21261287 -0.02608356 -0.14882968 -0.20054303 0.29317272 -0.20000403 0.17525974
-0.3713421 -0.18353514 0.27397433 0.2587373 -0.2810919 0.113712035 -0.15032104 -0.31182617
-0.31576923 -0.16619918 -0.30298874 0.023856752 -0.045553226 -0.12655047 -0.20666802 -0.21296766
0.26321724 0.37891474 -0.18893199 -0.28763628 0.15158513 0.3087904 0.18639985 -0.30168366
-0.32333422 0.15080269 0.35904378 0.2148374 -0.20836665 0.37799522 0.33934274 -0.26149505
0.018526541 -0.23505647 -0.011221615 0.07410604 0.21199097 -0.06298891 0.021037009 0.3185173
-0.104983754 -0.15721858 -0.07426832 -0.07989912 0.11716697 0.26436514 -0.03084407 0.04698462
0.03134463 -0.17401886 -0.27357614 -0.01905135 -0.08861257 -0.16213545 -0.023978729 0.25410458
0.37981182 0.31935805 -0.033955418 0.21320713 0.16465224 -0.06921825 0.09188503 -0.14385311
0.16228229 0.161983 -0.2654871 -0.026401877 -0.18028586 0.07011666 -0.21085982 -0.15063545
0.100961216 0.21583872 0.29726854 -0.25353268 -0.056771833 -0.29580525 -0.014509698 0.24424373
-0.2984492 -0.0014911088 0.10247197 -0.31236383 -0.023728669 0.0052735726 -0.29903507 -0.39456132
0.051112663 -0.11445828 -0.021101847 0.17040586 -0.14484288 -0.15423581 0.085668616 0.20907123
0.00719884 0.35388467 0.1698441 0.27711073 -0.2835623 0.19321859 0.24875504 -0.13801606
-0.049976163 -0.19867718 -0.0074695484 0.22232796 -0.12411618 0.11662627 -0.07930772 -0.08024772
0.19445758 0.095582284 0.23075388 -0.084537506 -0.03692559 0.06924511 0.3277183 0.055600815
-0.1636943 0.31886426 -0.22052677 -0.20102625 -0.3243307 -0.0072559197 -0.3134355 0.008465373
0.13596304 -0.21498393 0.23842874 0.22865663 0.30003697 -0.15544802 0.23391771 0.091555886
0.11056757 -0.13487177 0.19935693 -0.2485663 -0.06977076 0.12069139 -0.19880854 0.13046883
-0.26492882 -0.075475544 -0.1641798 0.13917898 -0.42091262 0.33424184 -0.27923423 0.13953437
0.2643424 -0.108116046 0.31672266 -0.21150602 0.3351972 -0.04621715 -0.12089485 -0.04209257
0.19259535 0.28304633 -0.2637242 -0.07856791 0.18522957 0.3097518 -0.2371526 -0.13419999
0.20891355 0.2103636 -0.3555557 -0.27123827 -0.16943379 -0.10235799 0.17620808 0.21686691
-0.14835215 -0.067011915 -0.118637756 -0.10215212 0.25875127 -0.29441413 0.37769768 -0.05911326
-0.00086204935 0.30301473 -0.25605482 0.089708336 0.10983477 0.26803675 -0.30774915 -0.001495853
00000000: e0f2 1abe 347b 30be 2c12 8b3e 4467 02bd
00000010: 34b1 003e 02c2 86be f6de 783d bac6 60bd
00000020: 4e9f 743e 9ba3 5b3e ff92 cdbd 879a dc3d
00000030: c537 97be 7aed a43e f073 703e 9432 c0be
00000040: 1722 b2bd 500f c43d aaea 19bd cf3c 9a3e
00000050: df56 a83e 4238 023d 6178 413e 1c00 70be
00000060: 991d 0abb 3b03 08bc b5ae 5b3e e625 73be
00000070: e0f4 c23e 2485 223e 4d06 64be 3aa1 a3be
00000080: b0ec c8be 53be 17be 14b9 35be c411 063e
00000090: 802f 9a3e da70 94bd 7e4e a8bd 4f6d 893e
000000a0: 38ac 573e 169b 9b3d 7d8c fabd dcc4 073e
000000b0: 8baf 31be 5986 8cbe 067c 1b3d c527 b7bd
000000c0: 5034 723d d799 233e 7032 993e 09c6 26bc
000000d0: 2464 703e ca6c a4bd 9edf 83be 1af7 89be
000000e0: 36f5 abbe 30b7 593e 31ad d5bc cf66 18be
000000f0: 275b 4dbe bc1a 963e dbcd 4cbe 4a77 333e
00000100: 8d20 bebe a3f0 3bbe 5d46 8c3e 3779 843e
00000110: 47eb 8fbe dbe1 e83d c2ed 19be aea7 9fbe
00000120: 81ac a1be 1e30 2abe 5721 9bbe 3c6f c33c
00000130: 0596 3abd 7296 01be c8a0 53be 3214 5abe
00000140: 69c4 863e 1d01 c23e 6377 41be 1045 93be
00000150: 2239 1b3e c619 9e3e 9adf 3e3e 4876 9abe
00000160: 108c a5be 056c 1a3e 96d4 b73e 56fe 5b3e
00000170: 115e 55be 9788 c13e 55be ad3e aee2 85be
00000180: f9c4 973c a5b2 70be ddda 37bc e8c4 973d
00000190: 2914 593e 5400 81bd ce55 ac3c b314 a33e
000001a0: b901 d7bd e8fd 20be fd19 98bd 26a2 a3bd
000001b0: 3df5 ef3d de5a 873e b4ac fcbc f272 403d
000001c0: 3a63 003d 0032 32be 2c12 8cbe 9411 9cbc
000001d0: 827a b5bd d606 26be 0a6f c4bc ff19 823e
000001e0: b276 c23e e682 a33e d614 0bbd f852 5a3e
000001f0: 999a 283e 4cc2 8dbd 382e bc3d 3b4e 13be
00000200: 542d 263e dfde 253e eded 87be c048 d8bc
00000210: db9c 38be 5399 8f3d a3eb 57be 2e40 1abe
00000220: c1c4 ce3d d304 5d3e 9533 983e 09cf 81be
00000230: 9589 68bd c973 97be 16ba 6dbc 071b 7a3e
00000240: 55ce 98be 4f71 c3ba d3dc d13d 27ee 9fbe
00000250: a062 c2bc efcd ac3b 201b 99be f103 cabe
00000260: 835b 513d 1a69 eabd c8dd acbc e07e 2e3e
00000270: b151 14be feef 1dbe 0773 af3d c516 563e
00000280: 3fe4 eb3b 5f30 b53e 9deb 2d3e 75e1 8d3e
00000290: 142f 91be 18db 453e a4b9 7e3e 1554 0dbe
000002a0: ceb3 4cbd 0872 4bbe 1dc3 f4bb f1a9 633e
000002b0: a030 febd c1d9 ee3d 166c a2bd eb58 a4bd
000002c0: e31f 473e a5c0 c33d bf4a 6c3e 0022 adbd
000002d0: 4a3f 17bd 61d0 8d3d b1ca a73e aebd 633d
000002e0: 7b9f 27be 2d42 a33e c5d1 61be d3d9 4dbe
000002f0: ac0e a6be 11c3 edbb 9e7a a0be 59b2 0a3c
00000300: e539 0b3e bf24 5cbe aa26 743e f724 6a3e
00000310: 729e 993e c42d 1fbe 2088 6f3e a781 bb3d
00000320: 4071 e23d d31b 0abe 3924 4c3e 2a88 7ebe
00000330: f9e3 8ebd 0c2d f73d 7794 4bbe 9f99 053e
00000340: c0a4 87be ec92 9abd c01e 28be ef84 0e3e
00000350: dc81 d7be bf21 ab3e caf7 8ebe 19e2 0e3e
00000360: e357 873e f26b ddbd 7929 a23e 0995 58be
00000370: f89e ab3e 324e 3dbd b897 f7bd 4269 2cbd
00000380: b737 453e 73eb 903e dc06 87be 36e8 a0bd
00000390: d2ac 3d3e ca97 9e3e 22d8 72be b96b 09be
000003a0: 6fed 553e 8e69 573e 660b b6be bedf 8abe
000003b0: 0d80 2dbe 11a1 d1bd e46f 343e 5c12 5e3e
000003c0: a0e9 17be 8b3d 89bd 5af8 f2bd 2135 d1bd
000003d0: 0c7b 843e 73bd 96be 9761 c13e bf20 72bd
000003e0: 27fb 61ba bf24 9b3e 9e19 83be 01b9 b73d
000003f0: 0df1 e03d 1d3c 893e 4c91 9dbe 7f10 c4ba

layers.1._mlp.0.bias f4 [32]
-0.0620103 -0.11316396 -0.2373479 -0.0059345406 -0.21229605 0.12401734 0.34235966 -0.02040899
0.27206463 -0.31162173 0.14556117 -0.21638308 -0.18328094 0.12267125 0.061202526 0.18672115
0.2368797 -0.30811957 -0.27872795 0.1817513 -0.21889831 0.24190497 -0.113899134 -0.15418719
0.23892012 -0.17736737 0.0684567 0.2526894 0.022344327 0.13981405 -0.17171174 0.17330366
00000000: 83fe 7dbd 82c2 e7bd 540b 73be 8976 c2bb
00000010: 2364 59be cefc fd3d c449 af3e c130 a7bc
00000020: 0e4c 8b3e e28c 9fbe fd0d 153e 8793 5dbe
00000030: 00ae 3bbe 103b fb3d 80af 7a3d d433 3f3e
00000040: 9890 723e d9c1 9dbe 6eb5 8ebe 031d 3a3e
00000050: e126 60be f0b5 773e f343 e9bd 3fe3 1dbe
00000060: 7aa7 743e cb9f 35be 0733 8c3d 8160 813e
00000070: 730b b73c 6a2b 0f3e 34d5 2fbe 8476 313e
