checkpoints/run_2_vit_model.pth (torch, 74699 bytes, 133 tensors)

_positional_embedding f4 [1, 49, 8]
000000 ce c1 0d 3f 24 7e 06 3f 3b b7 a6 bf 67 1d 5d 3e
       0.5537385 0.52536225 -1.3024668 0.21593247
000010 b2 0c 10 3f e5 d2 0f bd c8 12 4d 3f ff 07 8f 3d
       0.5626937 -0.035113234 0.8010678 0.06983947
000020 cf 47 22 be 6d 60 0f be 6d 8f 0b 3f 0b c3 28 be
       -0.15847705 -0.14001627 0.54515725 -0.16480653
000030 5a 4e 6a 3f 67 56 a9 3d d8 87 af be 2a 95 44 bf
       0.91525805 0.08268433 -0.34283328 -0.76790106
000040 d2 1f 3c 3f 1d 0c 7d be 94 4c 0e 40 89 6a 8f bf
       0.73486054 -0.24711652 2.223424 -1.1204387
000050 11 a2 e0 be 26 c7 48 3f 5a 54 31 3e 6b 98 f0 3f
       -0.43873647 0.78428876 0.17317334 1.8796514
000060 74 1b e6 3e 92 8f 18 bf 6a 86 21 c0 e9 84 79 bf
       0.4494282 -0.5959407 -2.523829 -0.9746843
000070 28 68 80 3f 28 d7 fa 3d af e7 8e bf 9a 2a fa 3f
       1.0031786 0.12248069 -1.1164454 1.9544251
000080 0c db 66 3f 6f cd 81 bf 39 61 4e 3f e4 8d 2c be
       0.9017799 -1.0140818 0.806171 -0.16851002
000090 2a af 0b 40 c4 46 09 40 17 6d 8a bf 87 b9 1f c0
       2.1825662 2.1449442 -1.0814542 -2.4956987
0000a0 7f 02 c2 3e 1d 24 2d be ba 8f e7 bf fc 0a 33 be
       0.3789253 -0.16908307 -1.8090737 -0.17484659
0000b0 30 48 24 3f 85 12 de bf c8 b5 08 3f 91 5a 94 3e
       0.6417265 -1.7349402 0.53402376 0.28975347
0000c0 52 1e 2c bf 76 9e 96 3e eb 0b 96 bf 2f 94 1d be
       -0.67233765 0.2941777 -1.1722387 -0.15388559
0000d0 2a 56 87 3f ff 58 04 c0 d8 77 1f 3f 08 3c 09 3d
       1.057317 -2.067932 0.6229224 0.033504516
0000e0 61 cf 9e bf c4 0b c8 3f 11 91 2b 3f 9e 7e 80 3f
       -1.2407037 1.562859 0.6701823 1.003864
0000f0 27 b6 0b 3f 8c 74 3b bf 62 83 0a 3f a0 39 cd 3e
       0.5457482 -0.7322471 0.54106724 0.40083027
000100 4f fd 13 3f 07 cb 83 bf 6a cf 40 3f a1 61 65 3e
       0.57808393 -1.0296334 0.7531649 0.22400524
000110 35 ee 3e bf 1f 3d 95 3f b5 d1 d2 be 8d e0 b5 3f
       -0.74582225 1.1659278 -0.4117562 1.4209152
000120 47 73 06 3f f5 44 2e 3f fd 2d 9d be 40 d7 89 bf
       0.5251965 0.6807397 -0.3069915 -1.0768814
000130 00 b1 9a 3d 45 8d 8d 3b c7 d6 2c be c7 c6 33 3d
       0.07553291 0.004319819 -0.16878806 0.04389074
000140 49 aa 04 c0 3e 16 98 3f 2f 13 e5 be d0 48 f5 be
       -2.0728934 1.1881788 -0.44741198 -0.47907114
000150 5f 73 a4 3d 72 cc 03 3f c1 10 2c be 65 0e 78 bf
       0.08029818 0.51483834 -0.16803266 -0.96896964
000160 3d c9 a7 3e e0 1f aa 3f 23 8a c2 3e 49 2b 2e be
       0.3277072 1.3290977 0.37996015 -0.170087
000170 11 0f 30 bf b9 c6 98 3d ca 6f 6a 3f b6 f1 c7 3d
       -0.6877299 0.07459778 0.91576827 0.097628996
000180 11 5b 8b bf 35 7b 66 3f d5 c9 77 3b 8f b0 99 3e
       -1.0887166 0.9003175 0.003780951 0.30017516
000190 fa 61 f4 be 8f 59 cb bf 7e f6 af 3e 9e 87 19 3f
       -0.47731 -1.5886706 0.34367746 0.5997256
0001a0 25 6d 98 3e f8 ea ce 3e 48 34 6a bf 39 af dc 3f
       0.2977077 0.40413642 -0.91486025 1.7240974
0001b0 39 b3 9d 3f f4 6e 68 bf 2c 4d 3e 3e ec 23 72 bf
       1.232032 -0.907943 0.18584126 -0.9458606
0001c0 0f 7d f3 3f 1c 23 96 3e ae dc 11 3e 3a 58 89 3e
       1.902254 0.2932366 0.14244339 0.26825124
0001d0 a3 31 79 bf 61 55 d5 3f 51 67 c3 3f 19 1d 30 bf
       -0.97341365 1.666668 1.5265905 -0.687944
0001e0 1e d6 ac be 78 de 27 bf 9e d3 ae 3f 10 aa 1b be
       -0.33757108 -0.65573835 1.365833 -0.15201592
0001f0 84 11 35 bf d3 51 03 c0 d5 17 22 bd 0e 6f be 3f
       -0.7072985 -2.0518692 -0.03957351 1.4877641
000200 d1 b0 f8 3f c3 0e 9d 3f 70 81 cb 3f e1 93 c5 3f
       1.942896 1.227013 1.5898876 1.5435754
000210 3b 0f 0e c0 c4 06 a6 3f a6 d8 b4 3f d3 ef ad 3f
       -2.2196796 1.2970815 1.4128616 1.3588814
000220 0d 79 56 3d e9 8c 88 3e 58 20 63 3f 83 b2 9f be
       0.052361537 0.26670006 0.8872123 -0.3119088
000230 8d 2e a2 bf 63 19 ae 3e 2c 75 33 c0 30 05 51 bf
       -1.2670456 0.34003744 -2.8040266 -0.8164854
000240 27 76 97 3e c0 95 96 3f ed 8b 5d bf 68 06 ac be
       0.2958233 1.176445 -0.86541635 -0.33598638
000250 a7 31 51 3f a6 7f 7e bf 94 43 9b 3f f7 4f f5 bf
       0.8171639 -0.99413526 1.2129998 -1.9165028
000260 e6 83 33 bf 16 44 a4 3b e1 33 85 bf 52 3b 6a 3f
       -0.70123136 0.0050129993 -1.0406457 0.91496766
000270 24 be c1 3f be 70 43 3e 30 63 65 bf 32 9b 12 40
       1.5136151 0.19085976 -0.89604473 2.2907224
000280 ac 32 d8 3e 25 c1 9e 3e 63 56 fe 3e b8 9f 6d 3f
       0.4222616 0.31006733 0.49675283 0.92821836
000290 ec 3e 90 3f e4 34 1d bf f4 bb 48 bf 4f bc 83 bf
       1.1269202 -0.6140883 -0.78411794 -1.0291842
0002a0 23 7a 91 be cf da d9 3e 70 24 cc 3e 95 86 4b 3f
       -0.28413495 0.4254975 0.3987155 0.7950223
0002b0 ee f0 82 3f 27 59 83 be 59 b7 ae 3d 72 e4 16 bb
       1.0229776 -0.25653955 0.085310645 -0.0023024348
0002c0 fa d5 2a 3f 9d 2b 14 bf e9 c9 04 3f e1 03 61 3f
       0.6673275 -0.5787905 0.5187059 0.87896544
0002d0 c9 5d 6e 3f 55 2b 3f bf 58 d9 55 3f 96 42 ac bf
       0.93111855 -0.74675494 0.83534765 -1.345782
0002e0 f2 c0 51 bf 05 fb c4 be e6 5d c3 be b3 85 a1 bf
       -0.81935036 -0.38472763 -0.38157576 -1.2618927
0002f0 20 0d 38 bf 96 c1 d0 be f4 f1 4b be 85 2f 8a bc
       -0.7189503 -0.40772694 -0.19916517 -0.016868362
000300 63 fc 0f bf 3f 50 31 3f 64 f9 a0 3d 78 33 9b be
       -0.56244487 0.6926307 0.078600675 -0.30312705
000310 84 91 1f be be 77 e1 3f 5d 7b cb be e3 db 42 bf
       -0.15582854 1.7614667 -0.39742556 -0.7611677
000320 7c e0 91 bf 31 93 97 be c5 5a bd bd a3 60 26 40
       -1.1396632 -0.29604486 -0.092458285 2.5996482
000330 64 98 63 be 45 cc 40 be 0c 8a 19 3f 46 4a 37 bf
       -0.22226101 -0.18827923 0.5997627 -0.7159771
000340 56 fe 06 40 db 4c bb bf d1 b0 c9 bf 2a 73 5e bf
       2.1092734 -1.463283 -1.5757085 -0.86894476
000350 60 55 cd bf d0 2e d5 3e a1 07 0c 40 02 c2 ce be
       -1.6041679 0.41637278 2.1879656 -0.4038239
000360 69 59 56 3f dd 04 f1 3d fa 54 92 3e e5 6a 16 bf
       0.8373018 0.11768506 0.28580457 -0.5875686
000370 d4 6a ee be 5e 46 fa be e9 af 8a bf 0a b8 97 3e
       -0.46565878 -0.4888181 -1.0834934 0.29632598
000380 0e cc 5a 3f 78 98 30 be 06 eb b0 bc 78 ae d8 3e
       0.8546761 -0.17245662 -0.021596443 0.4232061
000390 58 83 ef 3e 4a c8 29 3c b4 68 70 bf 62 eb 8f 3f
       0.46779895 0.010362694 -0.93909764 1.1243708
0003a0 ff 4e ca bc 34 ba dc 3e ae 5c dd 3e 2e f6 af 3e
       -0.024695871 0.43110812 0.4323477 0.34367508
0003b0 c6 56 0a bf 8b 1e 35 3f 67 cf ea 3e d6 23 93 be
       -0.54038656 0.7074973 0.4586136 -0.28738278
0003c0 f3 9b ef 3f 57 73 72 3f 47 8c 02 bd 64 cb ac 3f
       1.8719467 0.94707245 -0.03187206 1.349957
0003d0 da 45 23 bf 38 95 d7 be 6b 28 df 3c 08 bd b7 bf
       -0.6377846 -0.42106032 0.027240952 -1.4354563
0003e0 e1 10 9c 3e 53 cd a7 3c b9 04 86 3f 1e d8 ea be
       0.30481628 0.020483648 1.0470191 -0.4586801
0003f0 4c d5 84 3f 06 06 a1 3f f7 5a 8c 3f 17 61 51 3e
       1.0377593 1.2579963 1.096526 0.20447193

_patch_embedder.weight f4 [8, 1, 4, 4]
000000 0d 87 ff 3d 31 62 c4 bd 8d 74 3b 3e 7e 24 f8 bd
       0.12476931 -0.09589041 0.1830618 -0.12116335
000010 96 e5 9f 3e 28 6b f9 3d e0 6f 8c bd 1a 11 a7 bd
       0.31229848 0.121786416 -0.06857276 -0.08157559
000020 e4 c4 58 3e 4d a3 16 3e ad db 82 3d b6 47 06 be
       0.21168858 0.14710732 0.06389556 -0.13113293
000030 3c 82 56 3c 47 3f 09 3e 19 61 dd bd 7e 70 9e 3d
       0.013092574 0.13403045 -0.108095355 0.077363
000040 6e 27 d3 3d c7 4f 38 3e f0 0c 4e 3e b8 34 7a 3d
       0.10310255 0.17999183 0.20122123 0.061085433
000050 e1 b2 28 3e d8 a4 1e 3d d3 01 0a 3e 39 3e 12 3d
       0.16474487 0.038731426 0.13477258 0.03570387
000060 0b ac 18 be 0a 68 c3 3d 37 62 42 ba c7 58 1d 3d
       -0.14909379 0.09541328 -0.0007415148 0.038414743
000070 10 bd bd bd 04 78 e9 bd 83 43 4e 3d a5 61 80 be
       -0.092645764 -0.11399844 0.050357353 -0.25074497
000080 b7 77 cd 3d 35 a4 29 bd 07 f5 33 3e aa 19 ae 3d
       0.100325994 -0.041416366 0.1757394 0.08500989
000090 e3 7e 11 3e 2e 1c 38 3d e1 69 e3 3d 89 bf 94 3b
       0.1420856 0.04494875 0.11104179 0.0045394343
0000a0 42 40 34 be 4f 24 26 be 71 13 c8 bd b9 f8 2b 3d
       -0.17602637 -0.16224788 -0.09769333 0.041985247
0000b0 8f a8 8b be 1f 7d 7f be ff 12 73 be 5c 42 2e be
       -0.27277038 -0.24950074 -0.23737715 -0.17017502
0000c0 b7 2a 6c be d4 23 0f be 6d 91 c4 bd 3d 26 25 3e
       -0.2306317 -0.13978511 -0.0959805 0.16127868
0000d0 1b e7 1a be 88 d6 2f bc ba 46 89 3d 21 27 05 bd
       -0.15127222 -0.010732301 0.06702943 -0.03250802
0000e0 38 38 b0 bc 7d 0e 14 3d 6b d3 bb 3c 32 ae 47 3e
       -0.021511182 0.03614663 0.02292796 0.19500044
0000f0 81 af 90 bd f6 ae f2 3d 53 52 97 3e bb 95 dd 3d
       -0.07064725 0.118497774 0.29554996 0.108195744
000100 f1 12 93 3c 1e d0 21 bd e5 77 f2 3d 5f fb 97 3c
       0.017953368 -0.039505117 0.11839274 0.01855248
000110 cc a8 23 be 68 75 f3 bc 86 62 5c bd 9b 45 01 3e
       -0.1598236 -0.02971907 -0.053804897 0.12624209
000120 04 a1 a7 3d 06 22 6c bb e5 6a 04 3c cd 33 b2 3d
       0.08185008 -0.0036031022 0.008082126 0.087012865
000130 76 1e b9 bc bf b0 63 3d 32 cd d6 3d b8 7c 05 3d
       -0.022597533 0.05558848 0.10488357 0.032589644
000140 c4 17 37 3e 80 95 bf 3d 02 5e 87 bd 0b e0 de bd
       0.1788016 0.09354687 -0.066097274 -0.108825766
000150 18 60 38 3d fe fc de bd 70 52 1b 3e 13 2f 18 be
       0.045013517 -0.10888098 0.15168166 -0.14861707
000160 98 20 11 3e 92 e8 28 3e fa 08 cf bd 18 2c 4b be
       0.1417259 0.16494969 -0.10109134 -0.19841039
000170 77 e1 fa bd 92 96 17 3e f1 ae f8 bd c6 e2 a9 3c
       -0.12250035 0.14803532 -0.121427424 0.020738017
000180 66 62 9d 3e 72 57 a0 3e 42 67 20 ba 32 1b de bd
       0.30739135 0.31316715 -0.0006118902 -0.10845031
000190 e7 89 9c 3d a7 e6 64 3d fe 65 40 3e f5 ff f6 bc
       0.0764349 0.05588403 0.18788907 -0.030151347
0001a0 89 dc bc bd 65 37 1a 3d 2a 52 48 bd 9f 5d 1e 3e
       -0.09221751 0.037650485 -0.048906483 0.15465401
0001b0 32 87 58 3d 01 97 1d 3e 68 6b 3d bd 6a 4b 73 bc
       0.052863307 0.15389635 -0.04624501 -0.014849523
0001c0 33 a9 0e 3c 9c 71 6c be d7 87 c4 3d 1c ef a8 be
       0.008707332 -0.23090214 0.09596222 -0.32994926
0001d0 97 63 6f ba 98 c8 e0 bd 5d 12 6b be b5 53 7d be
       -0.00091319665 -0.1097576 -0.22956224 -0.24738963
0001e0 30 d8 1e 3e 98 11 10 3d 98 01 67 be b1 82 bc 3c
       0.15512156 0.03517303 -0.22559202 0.023011537
0001f0 0e 60 15 3e ef 2d 34 3d 91 34 68 bd 63 b5 5a bd
       0.14587423 0.04398912 -0.056690756 -0.05339564

_patch_embedder.bias f4 [8]
000000 21 05 a6 3a 6f ef 40 be 47 3c 62 3d 85 f9 5c 3e
       0.0012666323 -0.18841337 0.055233266 0.21579559
000010 73 fc 08 3e 00 c3 1a be dc 63 a8 bd c8 57 7c bd
       0.13377552 -0.15113449 -0.08222172 -0.061607152

layers.0._attention._q_proj.weight f4 [8, 8]
000000 39 5a 21 bb 22 86 82 bd af 84 d1 3d 82 d7 9d 3d
       -0.0024620427 -0.0637324 0.102303855 0.077071205
000010 b4 a5 ac 3c 49 86 1e bc 10 ea be 3e 04 5c b3 3e
       0.021075107 -0.009675571 0.3728795 0.3503114
000020 9d 90 a9 be c1 a4 96 3e 52 5c d9 be ba a6 ee 3d
       -0.33118144 0.29422572 -0.42453247 0.11652894
000030 e4 d5 bb bd 4f 19 2c 3e 4b f7 b5 3e 5c d5 08 be
       -0.09171656 0.1680653 0.35540232 -0.1336264
000040 71 30 22 3e f6 41 69 3e 89 84 e1 3d 9b 06 a0 3e
       0.15838791 0.22779068 0.11011607 0.3125504
000050 6b 2f 96 be 40 ee d1 3d 20 37 9e be 44 4f b7 bb
       -0.29333052 0.10250521 -0.30901432 -0.005594166
000060 0c b4 1b be 5b c9 f3 3e 5e 27 99 be 9e 2d fc 3d
       -0.15205401 0.4761456 -0.29912847 0.12313388
000070 27 c1 b8 be 32 6f f1 bd 7b b1 6a bd 56 02 7c be
       -0.36084864 -0.11788787 -0.057298165 -0.24610266
000080 49 47 44 3d 77 e7 26 be c9 49 d0 3d 2e 48 84 be
       0.047919545 -0.16299234 0.101703234 -0.2583632
000090 0e d8 18 be 65 97 ce bd 22 61 52 bd 49 86 8d be
       -0.14926168 -0.1008747 -0.051362164 -0.27641514
0000a0 ec c2 61 3e cd e5 bc bd 59 2d 67 bd da ef 0b 3e
       0.22047013 -0.092235185 -0.05643973 0.13665715
0000b0 b3 c3 92 3e 1f 13 04 3e f6 a7 f9 bd 78 f6 08 3e
       0.28664932 0.12897919 -0.12190239 0.1337527
0000c0 d5 3c 11 3e 89 68 d0 3e 61 0a b0 bd a9 05 c0 3d
       0.14183362 0.40704754 -0.085957296 0.093760796
0000d0 4b f4 36 be ea 0e d7 3e 45 93 c8 3e 50 c6 e0 3d
       -0.17866628 0.42003566 0.39174858 0.10975325
0000e0 65 40 80 3d 4d 96 28 3e 98 9d 85 3e b1 fb 1a be
       0.06262282 0.16463585 0.26096797 -0.15135075
0000f0 18 a7 72 3e ad ad d8 bd 06 a2 f3 39 e8 91 d4 be
       0.23696554 -0.10580001 0.0004646929 -0.41517568

layers.0._attention._q_proj.bias f4 [8]
000000 ea 21 29 3d 4b 78 95 3c 88 71 14 bd 60 ce 27 3d
       0.04129211 0.018245837 -0.036241084 0.0409683
000010 e2 4b aa 3e ce d0 a9 bd c3 2e 6d 3d 04 03 26 3e
       0.3326102 -0.082917795 0.057905924 0.16212088

layers.0._attention._k_proj.weight f4 [8, 8]
000000 7b b8 6b 3e 06 5b 9e bd 65 80 53 3e 18 86 39 3b
       0.23019592 -0.07732205 0.20654447 0.0028308686
000010 58 d9 8b 3e aa 4b 0a be 62 ab 91 be e9 e4 24 be
       0.27314258 -0.13505426 -0.28451067 -0.16102947
000020 72 bf 45 be 2f 01 70 bc be e8 46 be 7d 4e e3 be
       -0.19311312 -0.01464872 -0.19424722 -0.4439582
000030 4d 61 4c 39 33 71 1f be 19 35 74 be 70 ff 65 3e
       0.00019491203 -0.15570526 -0.2384838 0.22460723
000040 51 af a7 be 21 e6 cb bd 2b 63 56 3e 0e 32 cb 3e
       -0.32750943 -0.09956003 0.20936267 0.39686626
000050 32 6a 3c 3e 0d 97 8d 3e ef 28 aa 3e 78 90 15 be
       0.18399885 0.27654305 0.33234355 -0.14605892
000060 8b f4 7c be 49 9d 00 3c 26 1e 23 be bc c6 d3 be
       -0.2470266 0.00785 -0.1592947 -0.4136256
000070 16 fc 65 be 3a d8 80 3d 7f 0a 7c 3e e3 1a 54 3d
       -0.22459444 0.06291242 0.24613379 0.051783454
000080 86 2d 4f be 19 5f 87 be 25 3a 3e be ab a7 a8 bd
       -0.2023221 -0.2643974 -0.18576868 -0.08235105
000090 92 b7 c7 3c 7b 00 98 3e b4 3d d8 3d d6 f1 ec 3d
       0.024379525 0.29687867 0.10558644 0.11569564
0000a0 fb ff 86 3e 04 11 ab 3e 86 d2 a9 be 12 3a 40 bc
       0.26367173 0.3341142 -0.3316843 -0.011732595
0000b0 c0 64 8f be 31 c0 39 bd 1e 79 d3 3d 7a a0 79 3e
       -0.28006554 -0.045349304 0.10325836 0.24377623
0000c0 75 45 91 3d 2d 13 8f 3e d3 a1 17 3e 28 57 f4 be
       0.07093326 0.27944317 0.14807825 -0.47722745
0000d0 21 6c 11 3e 7a 6f 7d 3e d6 7d 1d bd c0 c8 e6 3d
       0.14201404 0.24749556 -0.038450085 0.11268759
0000e0 ec 60 26 be 86 46 ae bd 1e 2d 39 be 2b 12 96 be
       -0.1624791 -0.08509545 -0.18083617 -0.29310736
0000f0 69 eb 99 be 74 f2 5a 3e 19 12 80 3e f7 56 4e bd
       -0.30062416 0.21381551 0.25013807 -0.050375905

layers.0._attention._k_proj.bias f4 [8]
000000 4f 42 66 be 94 67 02 bb 85 80 e8 bd fc 69 93 bd
       -0.22486232 -0.0019898163 -0.11352638 -0.07197949
000010 53 87 41 3d 57 4a 7f be bc 5e f9 bd c8 ba 97 3e
       0.047248196 -0.24930702 -0.12176272 0.2963469

layers.0._attention._v_proj.weight f4 [8, 8]
000000 92 f2 70 be 1a 99 1d be e2 d0 e9 bc 21 4f c7 bd
       -0.23530033 -0.15390435 -0.028541986 -0.097318895
000010 bf 68 8a be 52 fa a8 3e d2 6f dc bc 19 95 52 be
       -0.2703304 0.3300348 -0.026908789 -0.20564689
000020 e7 19 4a 3e dc 60 ad 3d f4 4f 54 3d 37 e8 72 bc
       0.19736443 0.0846574 0.05183406 -0.014825872
000030 67 68 e9 3d 7a bb a6 3e 0a 82 9c 3d 1d a6 a3 be
       0.11396866 0.32564908 0.076419905 -0.31962672
000040 ea 14 ce 3d 80 6c a7 be 46 55 9d 3e c3 07 f1 3d
       0.10062583 -0.32699966 0.3072912 0.117690586
000050 a3 9f 1c bd 69 22 db 3b aa 25 95 3c ee bf a6 be
       -0.03823818 0.0066874516 0.018206436 -0.32568306
000060 ee 73 1b 3e a8 f6 93 be 97 47 49 3e 32 5a 1c be
       0.15180942 -0.2889912 0.19656216 -0.15268782
000070 4a 9a 5b 3d 41 92 5b be e1 73 f6 3d ad df 1a be
       0.05361394 -0.2144251 0.12033821 -0.15124388
000080 a0 59 31 3e c4 b3 6c 3e de cf 26 be 33 00 c9 bd
       0.17319345 0.2311545 -0.16290233 -0.09814491
000090 be f4 a7 be 2a 8d 1c be a1 f6 57 be 83 e8 76 3e
       -0.3280391 -0.15288225 -0.21090175 0.24112134
0000a0 12 78 a1 be fc 10 f2 b7 91 b8 55 3e 0c d3 d6 bd
       -0.3153692 -2.8856557e-05 0.20871188 -0.10489473
0000b0 18 6b b4 bc ea e2 33 3e 8c e7 ad 3d 99 03 8c be
       -0.022023723 0.1756703 0.0849143 -0.27346495
0000c0 4d 20 01 bd 6a 1f 09 be b1 62 40 3e 4c bb 9f 3e
       -0.031524945 -0.1339089 0.18787648 0.31197584
0000d0 84 b2 4d bd a7 8c a9 bd 22 38 b4 3d 7b 9c d5 bb
       -0.050219074 -0.082787804 0.08799769 -0.006518898
0000e0 ab e9 ce 3e 57 ee a1 bc 28 8b 92 be 9c 56 28 3e
       0.4041265 -0.01976697 -0.28621793 0.16439289
0000f0 42 cc a8 bd 45 64 4d 3e 11 3b cc be e6 cb 93 be
       -0.08242084 0.20057781 -0.39888814 -0.288665

layers.0._attention._v_proj.bias f4 [8]
000000 ed 3f b1 3e 77 ea a1 3e 1c f2 b7 bd 79 55 5b 3e
       0.34619084 0.31624195 -0.089817256 0.21419324
000010 f8 2e 15 3e 88 db 67 3e 9c ba f4 bd ba 5b 66 be
       0.14568698 0.22642338 -0.119496554 -0.22495928

layers.0._attention._o_proj.weight f4 [8, 8]
000000 8e 4f a2 bd af 31 46 3e 6b af e6 3d d5 cb 2c be
       -0.0792533 0.1935489 0.11263927 -0.16874631
000010 b9 1e 84 be 78 6f 8a be 28 65 82 3e f2 12 65 be
       -0.2580469 -0.2703817 0.254678 -0.22370508
000020 7a e0 9f be 84 71 0d 3e 03 06 43 3e eb a5 5f 3e
       -0.3122595 0.13812834 0.19045262 0.21840636
000030 dd cd 51 3d 80 ae 80 bc 17 41 c6 bc 7a 47 63 3d
       0.051221717 -0.015708208 -0.02420096 0.055488087
000040 f0 16 b0 be f4 13 2b be a2 58 26 bd 38 98 2e 3e
       -0.343925 -0.1670683 -0.04061187 0.17050254
000050 58 34 21 3d 4f 44 fd 3d 51 59 96 be b8 9d 1b 3e
       0.03935656 0.123665445 -0.29365018 0.15196884
000060 46 70 82 be 15 0b f2 3c fc c1 37 bd 83 eb 08 3e
       -0.25476283 0.0295463 -0.044862732 0.1337109
000070 23 a8 7b 3e cb 05 a4 3e 98 77 6b be 1b f3 64 3e
       0.24575858 0.3203567 -0.2299484 0.22358362
000080 88 bb a5 3e 0a db 2a be 2d 06 a4 3d 27 ef 33 be
       0.32369637 -0.1668512 0.080089904 -0.17571698
000090 e3 3a 38 3d c2 1e 8e 3c c3 4a 70 3e 75 e9 18 bd
       0.044978034 0.01734865 0.2346602 -0.037332017
0000a0 20 22 82 3e 44 0a 46 3d dd 66 8e bd a0 b7 65 be
       0.2541666 0.048349634 -0.06953213 -0.22433329
0000b0 f7 a2 fd 3d 73 47 a7 be db 56 5c be fa 74 b5 3d
       0.12384599 -0.326717 -0.21517508 0.08860202
0000c0 c2 f0 a5 3e d5 76 12 be 37 85 8f 3e e4 5e 78 3e
       0.32410246 -0.14303143 0.28031322 0.24254948
0000d0 f0 69 4d be 7f 35 94 3e ec 19 1c 3e 8c f7 a9 be
       -0.20059943 0.28947064 0.15244263 -0.33196676
0000e0 58 7d e4 3d e9 fa 1e be a8 96 59 be 2b 8b 77 be
       0.1115672 -0.15525402 -0.21248877 -0.24174182
0000f0 59 12 81 3e 25 c7 79 bd 37 03 1b 3e 04 20 c7 be
       0.2520931 -0.060980935 0.15137945 -0.38891613

layers.0._attention._o_proj.bias f4 [8]
000000 87 a6 8d 3d ee a7 96 3e 3c 83 90 3e 35 fc 6a bd
       0.06916528 0.29424995 0.28225124 -0.05736943
000010 90 06 3e 3e 4f dd a7 bd 0d fd 8f 3d 36 71 64 3e
       0.18557191 -0.08196508 0.070306875 0.22308812

layers.0._norm1.weight f4 [8]
000000 58 b7 b9 3f 54 d0 b2 3f a3 fa 92 3f b2 18 bc 3f
       1.4509077 1.3969827 1.1482738 1.4695036
000010 44 46 b1 3f 99 1a 88 3f 5a 28 9a 3f 55 5b 95 3f
       1.3849568 1.0633117 1.2043564 1.1668497

layers.0._norm1.bias f4 [8]
000000 a9 bc 8d b7 ea 5c 10 39 6b 85 15 b9 1b a6 ce 37
       -1.6896362e-05 0.00013767523 -0.0001425945 2.4634463e-05
000010 a3 cd b6 b6 b9 9c 88 38 fd c6 50 38 61 c1 89 38
       -5.447962e-06 6.514177e-05 4.9776387e-05 6.568689e-05

layers.0._norm2.weight f4 [8]
000000 7c c2 63 3f 30 37 49 3f 58 c6 9f 3f 24 84 97 3f
       0.88968635 0.78599834 1.2482405 1.1837201
000010 97 d2 84 3f fa eb 72 3f 17 e3 79 3f cd 64 99 3f
       1.0376767 0.9489132 0.97612137 1.1983887

layers.0._norm2.bias f4 [8]
000000 da fb 0d b8 e7 9f 12 b8 5f e7 38 37 50 46 1d 39
       -3.3851575e-05 -3.4958033e-05 1.1021125e-05 0.0001499888
000010 15 e7 31 b8 be e3 fb 38 ae e5 b4 b8 a0 52 92 39
       -4.24153e-05 0.00012011033 -8.62585e-05 0.0002790885

layers.0._mlp.0.weight f4 [32, 8]
000000 50 08 76 3d 45 f8 ce bc 4c 02 cb 3e ab 84 8e bc
       0.06006652 -0.025264869 0.3965019 -0.017397245
000010 37 5c 06 3d 0f 6b b0 be d6 4c 84 3d 84 93 f6 3d
       0.032802787 -0.3445668 0.06459968 0.12039855
000020 4d 19 65 be 60 e8 1b bd 78 9a c1 be 54 ee 9a 3e
       -0.22372933 -0.038063407 -0.37813163 0.30259955
000030 c3 e9 6b be d8 a3 7a 3d 83 b7 b5 3e 7b 3e 28 bd
       -0.23038392 0.06119141 0.3549157 -0.04107521
000040 84 7c f7 3d 74 2d de bc 89 a0 25 3d b2 d1 5c 3e
       0.12084296 -0.027121283 0.0404363 0.21564367
000050 29 ae b2 be 5b a6 78 be cf 53 51 3e 75 68 3d be
       -0.348985 -0.2428221 0.20442127 -0.18496878
000060 f7 21 98 3e 5d e1 ac 3d c8 8b 21 3e 43 06 67 be
       0.29713413 0.08441422 0.15775979 -0.22560982
000070 18 7a 41 3e c3 93 75 bd 54 aa 47 bd 3b 92 d3 3c
       0.18894231 -0.05995537 -0.048746422 0.025826564
000080 9b 68 1c 3e d6 5a db be 71 3e ff 3d e5 52 28 bd
       0.15274279 -0.4284274 0.12463082 -0.04109468
000090 3b e6 88 be 62 17 8a bd af ef 90 be 49 58 73 3e
       -0.26738152 -0.06742741 -0.28307864 0.23764147
0000a0 5b a3 4e 3e b9 38 1e be 57 75 ab bd 39 ab a4 be
       0.20179503 -0.15451325 -0.0837199 -0.32161883
0000b0 62 87 41 3e e7 95 29 be 2d 26 43 3e 38 04 86 be
       0.188993 -0.1656109 0.19057532 -0.26175094
0000c0 90 db 55 3e 01 1b 14 3e 4b 6c f8 3d 37 33 a8 3e
       0.20884538 0.14463426 0.1213003 0.32851574
0000d0 b1 5c dc bd d7 b5 b4 bc db a8 e9 3d 77 16 a4 3e
       -0.10759867 -0.022059364 0.1140916 0.3204839
0000e0 72 85 1f 3d d4 93 7f 3e 27 b3 65 be c4 db 9e bc
       0.038945623 0.24958736 -0.22431622 -0.019391902
0000f0 77 84 10 3d 89 9f 58 be e9 36 f1 bb 0b 65 cf 3d
       0.03528258 -0.21154608 -0.007361282 0.10126694
000100 a2 81 cc 3d fd d6 0e 3e 08 3e 49 3e c7 34 3b 3e
       0.09985663 0.13949199 0.1965257 0.18281852
000110 85 c0 0b be 60 85 43 3e a6 9f ca be 18 40 04 be
       -0.13647659 0.19093847 -0.39574927 -0.12915075
000120 23 d3 68 3e 73 4c 97 3c ee 7a 76 3d 39 db 4e 3e
       0.22736792 0.018469071 0.06017583 0.20200814
000130 e8 f5 1d bd d0 71 90 be d8 49 92 3e ec ed 9c 3c
       -0.038564593 -0.28211832 0.28571963 0.019156419
000140 09 16 e7 bc 78 3d 94 3e d3 c1 c2 3d 16 74 17 bd
       -0.02820875 0.28953147 0.09509625 -0.036975943
000150 be 96 78 3e ed 9e 7d be 25 6e a8 3e 65 0a 7a 3e
       0.24276254 -0.24767657 0.32896534 0.24418028
000160 e7 87 ee 3d 41 94 cf bd 39 1c 6a 3d b0 c5 24 3c
       0.11647015 -0.10135699 0.05715582 0.010056898
000170 2e a3 13 3e 79 99 9f 3e 68 8b fd bd 02 40 03 be
       0.14417717 0.31171778 -0.12380105 -0.12817386
000180 8d 18 22 be 20 3f a9 be d8 63 a8 3d a5 a4 91 bd
       -0.15829678 -0.33055973 0.08222169 -0.071114816
000190 b8 61 11 3e 8a 79 f9 bd a7 1c 71 be b2 f2 f5 3d
       0.14197433 -0.12181385 -0.23546086 0.12009181
0001a0 8b 85 9f be d0 0f 8c 3e 7b 9f 3c be d9 09 5e be
       -0.31156573 0.27355814 -0.18420212 -0.21683444
0001b0 19 82 8c 3b b1 30 9e 3d 21 34 b7 3e 32 9c 6c be
       0.00428797 0.07724131 0.3578196 -0.23106459
0001c0 f5 28 30 be 51 4c bd bd 43 db 85 3e 94 8f 4b 3e
       -0.17203124 -0.09243072 0.26143846 0.1987899
0001d0 ff 27 35 3e 56 3a 77 3d d8 8c ad 3e 82 e9 1c 3e
       0.17691039 0.060358368 0.33896518 0.15323451
0001e0 17 ba 92 3c 09 ed bb 3e 78 91 ff 3d 7f c9 0c 3e
       0.017911 0.3670428 0.12478918 0.1374874
0001f0 f9 46 a6 be af 3d 7b 3d 7c 54 18 bc 61 48 96 3c
       -0.32476023 0.061338123 -0.009297486 0.01834506
000200 7a 16 a5 be 1b 7e 00 3d b2 f1 3c bc e6 98 9b be
       -0.3224371 0.031370264 -0.011532234 -0.3039009
000210 01 2d bc 3e 9a 57 c0 bd bb 4c 29 3e d0 35 bc 3e
       0.36753085 -0.09391709 0.16533177 0.36759806
000220 46 c0 0c 3d 64 fc 85 3d d7 14 86 3c 7e 92 55 be
       0.034363054 0.0654228 0.01636736 -0.20856664
000230 a0 16 10 3e bc 20 14 3e 9c 3d 09 be 4a 07 23 3e
       0.14071131 0.14465612 -0.13402408 0.1592075
000240 5f a5 08 be e1 99 9f be 03 c9 c3 3e 90 12 dd bd
       -0.13344334 -0.31172088 0.38239297 -0.10794556
000250 65 66 84 3e 19 29 16 3e 0b b6 2f 3e 7d 2e af bd
       0.2585937 0.14664115 0.17159288 -0.08553789
000260 31 de 25 bd 77 72 9c 3d 25 18 a6 3e 1c 4a 99 3e
       -0.0404951 0.0763902 0.32440296 0.29939353
000270 20 93 a4 bd ac 0c 69 3e 19 00 f1 3d b6 13 8c 3d
       -0.08035874 0.2275874 0.11767597 0.06839697
000280 1f 50 70 bc f7 12 27 3e 71 51 bc 3c 9b 27 48 be
       -0.01466754 0.16315828 0.022988053 -0.19546358
000290 24 4b 13 be 83 8b 10 be a7 e1 8f be 28 4e c8 3d
       -0.14384133 -0.1411572 -0.28101847 0.09780532
0002a0 22 cd 7e 3e 79 1d 8f 3e 20 c1 b4 bd a3 b8 94 bd
       0.2488294 0.27952173 -0.08825898 -0.07261779
0002b0 3a f9 08 3e 96 d0 43 be c9 d2 ec bd 9a 6f 9e be
       0.13376322 -0.19122538 -0.115636416 -0.3094452
0002c0 4b 41 02 3e 93 06 8b 3e a2 d1 07 3d 47 43 95 be
       0.1272022 0.27153453 0.033158906 -0.2915289
0002d0 91 2e 0a bd 25 90 a8 be b1 69 48 be 27 dc 8b 3e
       -0.033735815 -0.32922474 -0.19571568 0.273164
0002e0 cd a1 b4 3e b4 8e 81 be d0 40 c2 3e 58 a8 28 3e
       0.35279694 -0.25304186 0.37940073 0.16470468
0002f0 48 a5 bb bd 00 ad 9b 3e 36 ab 89 be ce 70 5f be
       -0.09162384 0.30405426 -0.26888436 -0.21820375
000300 98 ac a5 3e d9 38 d1 3d 45 29 c0 bd d2 4c a7 bd
       0.3235824 0.10215921 -0.093828715 -0.08168949
000310 9e 85 89 be c5 fb 88 3e 68 29 45 be 63 ad a0 be
       -0.26859754 0.26754585 -0.19254076 -0.31382284
000320 1e 29 fe 3d 76 52 aa 3b 4c 80 8f 3e d1 07 97 3e
       0.12410186 0.0051978184 0.2802757 0.2949815
000330 92 8f 1c 3e e3 d7 bd bc b5 c4 56 3e e0 e4 e7 3d
       0.15289143 -0.023174232 0.20973475 0.11322951
000340 e1 07 d4 3d 5a 28 74 3e 26 79 8b be 22 2f 61 3e
       0.10353065 0.23843518 -0.27240866 0.21990636
000350 36 3a 5c bd ee be 7c 3e b9 79 23 bc 54 61 a2 3e
       -0.05376645 0.24682209 -0.009977751 0.3171488
000360 45 38 a9 3e 5a 32 39 be f7 7d 12 bd e4 19 29 be
       0.33050743 -0.18085614 -0.03576466 -0.16513783
000370 29 b5 a3 be ab 41 ff bd 52 b8 9a 3e 3c 94 84 3e
       -0.31974152 -0.12463697 0.3021875 0.25894344
000380 0a ff 89 3e 7b 24 72 3e 71 7f 31 be 53 82 be be
       0.26952392 0.23646729 -0.17333771 -0.37208804
000390 6b 9b 37 be 80 e0 54 3e 76 ae a3 3d 44 17 db bc
       -0.17930381 0.20788765 0.0799226 -0.026744492
0003a0 35 67 8b 3d ea 45 5e 3e c2 bd a4 bd 3e fc 5d be
       0.068067946 0.21706358 -0.08044006 -0.21678254
0003b0 56 ee b7 3c 03 73 09 bd 1d ae b1 bb e0 a0 b3 be
       0.022452515 -0.03355695 -0.0054223672 -0.35083675
0003c0 00 50 b9 bd c7 49 3d 3d e1 18 4b be 0c 03 49 bd
       -0.09048462 0.046212938 -0.1983371 -0.04907517
0003d0 29 a3 62 3d fa 9d 11 be 18 1f 73 bd f5 b3 85 3e
       0.055331383 -0.1422042 -0.059355825 0.2611386
0003e0 a0 bf 9c be c0 aa 4d 3e 2d f0 b1 be 73 f3 a1 be
       -0.30614948 0.20084667 -0.34753552 -0.3163105
0003f0 3c af a7 be 9d d5 cc 3d a5 af c6 bd 40 dd 34 3e
       -0.3275088 0.10001681 -0.0970147 0.17662525

layers.0._mlp.0.bias f4 [32]
000000 2d e7 3e be 90 a7 e0 bd 46 5d aa be ee d4 b6 bd
       -0.18642874 -0.1096946 -0.33274287 -0.08927332
000010 e4 07 a5 be 02 57 56 3e 4b dc 58 bc 7e 69 15 be
       -0.32232583 0.20931628 -0.013236116 -0.14591023
000020 9a ae ae be c4 03 2a be d2 b2 cd 3d ae 08 4a 3d
       -0.34117585 -0.16602999 0.10043873 0.049324684
000030 78 67 52 3e 43 59 8d 3e 9d 25 90 3e 90 c7 48 be
       0.20547283 0.27607164 0.28153697 -0.19607377
000040 37 b5 72 3e 69 5a a4 3e c6 f3 94 3e b7 c7 4c 3e
       0.2370194 0.32100227 0.29092234 0.1999806
000050 af 18 5e be c3 ee 80 3e dc d2 81 3d f1 1b 17 be
       -0.21689104 0.2518216 0.06339046 -0.14756753
000060 61 0e f5 bd 14 df 36 be 43 5b 90 3d ef 41 2f 3d
       -0.11965633 -0.17858535 0.07048657 0.04278749
000070 4f e6 f3 bd 4a 7e 8c be 8b 8d 8e be 1a 40 ab ba
       -0.11909162 -0.274401 -0.27842364 -0.0013065368

layers.0._mlp.2.weight f4 [8, 32]
000000 4a 68 14 3e 68 3b 0e 3e 76 21 e3 bc e4 0b d7 bd
       0.14492908 0.13889849 -0.027725916 -0.10500315
000010 da c7 f8 bd 32 2b 36 3e 6f 83 58 3d 48 96 28 3e
       -0.12147494 0.17789915 0.05285972 0.16463578
000020 b3 31 a8 3d db e4 e4 3d 68 b9 8e bd 54 f0 5a 3d
       0.082126044 0.11176463 -0.06968957 0.05345185
000030 16 8d 58 3d 22 b4 b6 3d 41 bf 3c 3e 61 09 54 3d
       0.052868925 0.08921076 0.18432333 0.051766757
000040 f4 e2 fd 3d 63 1f 96 3d 5b f2 35 3e 4e 9d b1 3d
       0.123968035 0.07330205 0.17768233 0.086725816
000050 96 23 04 be f0 0d 92 3b 28 c9 07 3e 22 95 50 3e
       -0.129042 0.004457228 0.13260329 0.2036939
000060 cc 42 4c bd ea 4a fd 3c 2c 27 38 3e 39 53 d9 3d
       -0.04986839 0.03091951 0.17983693 0.106115766
000070 9e 3f a0 3d 5b fc c3 bd dd 0d dc 3d 69 82 e0 3b
       0.07824634 -0.09569617 0.10744832 0.0068514836
000080 96 8d ad bd 18 29 32 3e 25 40 51 3d ca fb a8 3d
       -0.08474271 0.17398489 0.051086564 0.0825115
000090 ab 04 5f be 85 aa c9 bd 4f c9 ce bd ad d5 15 be
       -0.21779124 -0.09846977 -0.1009699 -0.14632292
0000a0 ca 2c d0 3d 86 fc cd 3d 23 48 3c 3d 14 e5 2b be
       0.10164793 0.10057931 0.045967232 -0.16786605
0000b0 63 a3 00 be bf a4 89 3d 21 33 47 3d 67 8d 2c 3e
       -0.12562327 0.06720876 0.048632745 0.16850816
0000c0 33 a3 9b 3d 83 d9 c8 3d be df 3a bd 1a d2 2b 3e
       0.07599487 0.09807112 -0.045623533 0.16779366
0000d0 f2 6d 0c bd 77 c9 88 3c 4a 27 03 3e 11 78 02 3e
       -0.03428454 0.016697628 0.12807956 0.12741114
0000e0 44 bf fd 3c b8 37 96 bd d4 7b f0 bd c7 7c fd bc
       0.030974992 -0.07334846 -0.11742368 -0.030943288
0000f0 bd ce 88 bd 09 dc 56 bd d1 8e c4 3d 7b 80 b8 3d
       -0.06680057 -0.052455936 0.095975526 0.09008881
000100 a1 ce ff 3d 30 c9 ca bc 98 ee 22 3e a1 08 7f bd
       0.12490583 -0.024754137 0.15911329 -0.06226409
000110 bf cf c6 bc 2a a5 de 3d 57 2e 86 bd 2a 2c 14 3d
       -0.024268983 0.10871346 -0.065518074 0.03617493
000120 52 ef 11 bd 0b 5a 04 3e f0 30 ae bd b0 97 31 3b
       -0.035628624 0.12924974 -0.08505428 0.002709847
000130 64 38 13 3e 7c c4 16 be 02 ae 2c 3e 67 a4 0b be
       0.1437698 -0.1472339 0.16863254 -0.13636933
000140 50 74 30 3e 9e cb dc bd a2 e4 84 bc 21 b7 0f 3e
       0.1723187 -0.107810244 -0.016222302 0.14034702
000150 e0 ea 3c be a6 d9 00 3d 19 49 0c 3e ad 1a cb 3d
       -0.18448973 0.031457566 0.1369976 0.099171974
000160 48 46 12 be 4b d3 43 bc 09 5b 1d be ca 00 df bd
       -0.14284623 -0.011952232 -0.15366758 -0.108888224
000170 e8 11 15 3e 0d ac 29 3e e4 ab c1 3c 40 50 a8 bd
       0.14557612 0.16569538 0.023641534 -0.082184315
000180 1e 3f 3c 3e dd 01 f9 3d 80 a3 1d 3e fa bc 11 3d
       0.18383452 0.121585585 0.15394402 0.035580613
000190 03 d9 a8 bd 18 66 96 bd 10 8f 07 be 4d 04 14 bd
       -0.08244517 -0.073436916 -0.13238168 -0.036136914
0001a0 f2 d8 03 3e f0 0b 77 3d c5 1f 6d 3d 27 5a 0c 3e
       0.12875727 0.06031412 0.057891626 0.13706265
0001b0 af 46 f0 bd 47 a5 b3 bd 71 b7 f4 bd 73 aa a3 3c
       -0.11732232 -0.087717585 -0.11949051 0.019978737
0001c0 ec 59 8b 3d 3f 37 d8 bc af 76 9e 3d e0 93 ae 3d
       0.068042606 -0.02639353 0.07737481 0.08524299
0001d0 75 91 21 3e 1f 67 50 bc 94 25 f6 3b 32 d9 18 3e
       0.15778144 -0.0127198985 0.007511804 0.14926603
0001e0 a8 ed 8f 3d 71 f2 5b bd 69 c4 1e 3e af 32 34 3e
       0.07027751 -0.053698007 0.15504612 0.1759746
0001f0 61 05 b4 bd 62 ef d8 bc 8d 79 db bd 52 86 01 bd
       -0.087900884 -0.026481334 -0.10716543 -0.03162224
000200 83 39 45 3d de 1c 5d b9 69 f4 f1 bd 55 6f 9e 3d
       0.04815055 -0.00021086956 -0.11814196 0.07736079
000210 10 df 0a be 11 5e e1 3d 75 23 ba 3d 74 57 94 3d
       -0.13561654 0.1100427 0.09088794 0.07243243
000220 ef 81 05 3e f8 14 4b bd 97 2a 15 3e 53 dd e2 3c
       0.13037847 -0.049580544 0.14567028 0.027693426
000230 3c e2 81 3c 3f e8 23 3e 8f 39 19 3e b6 7a 49 3d
       0.015854947 0.16006564 0.14963363 0.049189292
000240 c4 11 44 be 4e c3 08 be 54 9d 16 3d 56 c1 58 bd
       -0.19147402 -0.13355753 0.036771134 -0.052918755
000250 43 4b b1 3d 8c 99 26 3d 8b f1 93 bd c1 e3 19 be
       0.08656933 0.040673777 -0.07223805 -0.15028287
000260 6e 75 d0 bd 6f 36 db 3d 5a c5 78 3c 6a 89 75 bd
       -0.10178648 0.10703742 0.015183771 -0.0599455
000270 1f b1 db bd aa bc 59 3d 31 ea 12 be 69 00 88 3d
       -0.107271425 0.05315844 -0.1434715 0.06640703
000280 31 5b 18 be 95 71 a7 3d 59 a5 18 3e 67 c4 62 bc
       -0.14878537 0.08175961 0.14906825 -0.013840771
000290 4c d9 23 3d b7 f4 12 be 72 d5 ec bd 7c 79 0d 3e
       0.040002152 -0.14351164 -0.11564149 0.13815874
0002a0 d5 7b 03 be 87 c8 38 3e d3 2b 4c 3d 7e a0 a7 bd
       -0.12840207 0.18045245 0.04984648 -0.08184908
0002b0 b5 ca 27 3d 7a c8 58 bd d6 6c a4 3d cb 08 05 3e
       0.0409648 -0.052925564 0.08028571 0.12991636
0002c0 0f b6 29 be 21 51 00 be de 3d 38 3d 74 4e a4 bd
       -0.16573356 -0.12530948 0.044980876 -0.08022776
0002d0 fa f0 ce bc ac fc e7 bd 49 d7 17 3e d3 51 cd bd
       -0.025261391 -0.1132749 0.14828219 -0.10025372
0002e0 dd d4 03 bd 75 63 9c bd cd 90 5c 3d c9 bb 3d 3e
       -0.032185424 -0.076361574 0.05384903 0.18528666
0002f0 89 6d 90 3d 2d a8 8a bc bf 29 09 be 5f cf a9 3d
       0.07052142 -0.016925896 -0.13394831 0.08291506
000300 ad fe 2d 3e 37 13 53 bd d5 ba 91 3c 89 d6 25 3e
       0.16991682 -0.051531997 0.017789284 0.1619512
000310 0a 88 1f 3e 03 72 be bc e3 4f 20 3e 3d 64 0c 3e
       0.15579239 -0.023247724 0.15655474 0.13710113
000320 75 da 31 be 1e 49 69 bd f6 fa 27 3e cb 54 8a bc
       -0.17368491 -0.056954496 0.16404328 -0.016886136
000330 9d 9a d6 bd 01 c4 a7 bc 05 ea 0d be 2c 7d 9d 3d
       -0.10478709 -0.020479204 -0.13858803 0.0768989
000340 00 44 f6 3c 25 77 25 bd 87 1b 62 bd 67 7b d7 bd
       0.030061722 -0.04039683 -0.055202033 -0.10521584
000350 ac 6f 21 bd 0b be ca bd 2a 18 2e 3c 19 b7 41 bd
       -0.03941314 -0.09899529 0.010625878 -0.047293756
000360 f1 05 02 be 11 ed f0 3d 58 99 59 bd e0 08 4a be
       -0.12697579 0.11763967 -0.053124756 -0.19729948
000370 5d df 68 bd 0b 8c 3d 3e 98 b2 ac 3d 82 f8 0c be
       -0.05685364 0.18510453 0.084325016 -0.13766673
000380 9b a8 c0 bd c2 06 fd bb 63 55 07 be bf ae c4 bd
       -0.09407159 -0.007721753 -0.13216166 -0.09603643
000390 a1 0b a7 bc 5a f2 2b be 08 70 9a 3d 52 66 00 3e
       -0.020391287 -0.16791669 0.075408995 0.12539032
0003a0 ec d2 85 3d ed a5 02 3e 6d b1 0b 3e a5 86 bd bd
       0.06534371 0.12758608 0.13641901 -0.09254197
0003b0 3b 44 0e bd 2d 25 d4 bc e1 7e ed bc ec af cd bd
       -0.03473304 -0.025896633 -0.028991165 -0.1004332
0003c0 eb 41 13 be a4 1c b9 3d 67 ca 53 3d 7d 05 83 bd
       -0.14380614 0.09038666 0.051706698 -0.06397531
0003d0 8e fb b9 3d ba c0 ee bd c8 19 41 be 56 3b eb bd
       0.090811834 -0.116578534 -0.18857491 -0.11485927
0003e0 fb bf a7 3d 7f f4 de bd 37 0c 89 3b b9 6d f8 bc
       0.08190914 -0.10886478 0.0041823643 -0.030325757
0003f0 78 83 2e bc 68 42 ec 3d bd 21 90 3d 69 37 33 be
       -0.010651462 0.115361035 0.07037685 -0.17501606

layers.0._mlp.2.bias f4 [8]
000000 2e 6b 1e be f5 de 1e be 68 fb 06 3e c0 d8 1f 3e
       -0.15470573 -0.15514739 0.13181841 0.15610027
000010 af 8d 95 3d 8b 39 a8 3d 76 54 df bd e4 ee 25 3e
       0.073024146 0.082141005 -0.109047815 0.16204411

layers.1._attention._q_proj.weight f4 [8, 8]
000000 84 fb 0f 3d 87 ad a9 3e 40 ce 50 be fb b3 c2 3c
       0.035151973 0.33140203 -0.20391178 0.023767462
000010 c4 3f 56 3d 43 31 3f bc 7f c3 6d bc db 60 be 3e
       0.052306905 -0.01166946 -0.014511942 0.3718327
000020 7b 52 71 be b7 25 90 be 7c 54 8e bd 32 d2 4a be
       -0.2356662 -0.28153774 -0.06949708 -0.19806746
000030 35 f4 1e bc f5 dd 46 be c6 5d 6a 3d 7a 7f 27 be
       -0.009701778 -0.19420607 0.057218336 -0.16357222
000040 b1 64 02 3d cb dc 0c 3e 37 bc 65 be 04 29 80 be
       0.031834308 0.13756101 -0.2243508 -0.25031292
000050 73 b7 ed bd ab dd cf 3e b7 91 89 be 44 0e f0 3e
       -0.11607256 0.40598807 -0.26868984 0.46885884
000060 d8 de b8 be a0 a6 9f 3d 37 d8 37 be 2a fb 56 be
       -0.36107516 0.07795453 -0.17953573 -0.20994249
000070 12 bb 1b 3e a0 1f f2 3d a6 f3 a8 3e 7a 35 7c be
       0.1520808 0.11822438 0.3299839 -0.24629775
000080 3f 9a 8f 3e b0 21 b9 3e 10 cc 23 bd f6 85 19 3d
       0.28047368 0.36158514 -0.03998953 0.03748127
000090 43 09 11 be ce 87 65 be 98 74 8d 3e 1f 13 96 be
       -0.1416369 -0.22415087 0.27628016 -0.29311463
0000a0 d3 b9 8d bd 20 9b 9f 3e 18 d4 af 3e 48 88 ce bd
       -0.06920209 0.31173038 0.34341502 -0.10084587
0000b0 45 53 49 bd 8f e6 9a be 59 5b c4 3e 63 7a 35 3e
       -0.049151678 -0.30254027 0.38350943 0.17722468
0000c0 12 f0 cc bd 58 c6 c0 bc e8 ea c3 bd a2 69 77 be
       -0.10006727 -0.023532078 -0.09566289 -0.2416139
0000d0 69 b3 c0 3b ed 56 5a 3e 33 10 b2 bc e9 aa 44 be
       0.0058807624 0.21322222 -0.02173624 -0.19205822
0000e0 6e 77 83 bb 66 57 3d be da da a7 bd 13 ee ca 3d
       -0.00401204 -0.18490371 -0.081960395 0.0990869
0000f0 58 71 9f be 74 44 7c bb 74 b7 f7 3d 82 a2 90 3b
       -0.31141162 -0.003849295 0.12095538 0.0044139037

layers.1._attention._q_proj.bias f4 [8]
000000 36 d9 92 3e 54 83 57 be 94 75 ef be 1e cb 8c be
       0.28681344 -0.21046191 -0.46769392 -0.27498716
000010 2a 13 f1 3d cf a0 4e bb fa 0c 83 3e 62 86 95 3d
       0.117712334 -0.0031528955 0.25595838 0.07301022

layers.1._attention._k_proj.weight f4 [8, 8]
000000 b8 1a 82 3e 24 89 7c be 33 71 80 3e 11 fe 75 3e
       0.2541101 -0.2466169 0.25086364 0.240227
000010 e3 57 bf 3e ac 54 b6 be 40 24 85 3e aa b9 28 3d
       0.3737174 -0.35611475 0.2600422 0.041192688
000020 01 e7 fd 3c 5c b6 e2 3b b6 22 87 3d ca f9 a5 be
       0.03099394 0.0069187116 0.065984175 -0.32417136
000030 25 ae 9f 3d 25 af 5c 3e e8 54 a9 3e e4 40 83 bd
       0.07796887 0.21551187 0.3307259 -0.06408861
000040 15 41 56 3e 10 ba ed 3d 0d 70 a4 3e bc 6f ac be
       0.20923264 0.11607754 0.32116738 -0.33678997
000050 5c 43 30 3e c2 e9 07 3e a0 8f cd 3d 4e d3 b6 3e
       0.17213196 0.13272765 0.1003716 0.35708088
000060 56 ab 65 3e 7e f2 a4 be 56 b3 06 be 47 32 6e be
       0.2242864 -0.32216257 -0.13154349 -0.23261367
000070 57 00 4b 3d 7f d4 62 be 3c a5 59 3e 55 5d 01 bc
       0.04956087 -0.22151373 0.21254438 -0.007895787
000080 d2 2f 74 be 37 3a c5 3d c3 69 6a be cf 47 de 3e
       -0.23846367 0.09630244 -0.22891907 0.4341416
000090 62 2b 3f 3d 58 11 b2 3e 22 9d 9f be b4 78 ea bd
       0.046672232 0.34778857 -0.3117457 -0.114488035
0000a0 a7 61 96 be bd 98 99 3e 71 b9 86 3e 00 c1 d1 3e
       -0.29371378 0.29999343 0.26313356 0.4096756
0000b0 18 b2 ab be 53 00 88 3d 60 e6 99 3e b8 cb 72 bd
       -0.33534312 0.06640687 0.30058575 -0.059276313
0000c0 93 19 66 be 01 f2 63 3e 09 30 93 3e de a1 79 3e
       -0.22470693 0.22260286 0.28747585 0.24378154
0000d0 95 e1 12 b9 65 95 4c be 03 6c be be e9 c6 40 be
       -0.00014007681 -0.19978864 -0.3719178 -0.18825878
0000e0 8f f2 d3 3c 8e be b1 bd 4a 4c 99 be d7 ec 70 3e
       0.025872497 -0.086789235 -0.29941016 0.23527847
0000f0 6c 71 30 be 7e eb d4 bc 3c c8 1b 3e 20 11 1c 3d
       -0.17230767 -0.025991198 0.15213102 0.03810227

layers.1._attention._k_proj.bias f4 [8]
000000 1a 69 47 3e 86 ac 5a 3d be d6 8e be 00 97 33 3e
       0.19473687 0.053387187 -0.2789821 0.1753807
000010 38 50 e5 3d 0d 00 60 be a4 e0 ba 3c 81 3c 97 3e
       0.11196941 -0.2187502 0.022812195 0.29538348

layers.1._attention._v_proj.weight f4 [8, 8]
000000 19 9a 25 3e 60 af 69 be 3e 6f a4 3e 70 03 d1 3d
       0.16172065 -0.22820807 0.3211612 0.10205734
000010 90 d8 a9 3e e9 6b 5a 3d b2 88 75 be f2 74 58 3e
       0.33173037 0.053325567 -0.23977926 0.21138361
000020 55 36 d4 bd 0a be 86 3e 70 34 d8 3e a8 c4 05 3d
       -0.103619255 0.26316863 0.42227507 0.03265825
000030 c6 29 bd 3e d2 45 93 3e 7c 53 63 3d 02 1a a7 bd
       0.36945933 0.28764206 0.05549954 -0.081592575
000040 c1 26 11 be 2a 82 86 3e 24 c8 dd bd 0b 97 6e be
       -0.1417494 0.26271182 -0.108291894 -0.23299806
000050 cb 43 48 bb 2e 3b a5 3e 0d 14 98 3e ec 5d 89 3e
       -0.0030557986 0.32271713 0.29702798 0.2682947
000060 f3 d7 a4 3e d1 69 69 3d ff 3a 0d 3e e3 c3 26 3d
       0.32196006 0.05698568 0.13792036 0.040714156
000070 2d 14 00 be de 73 9f 3e 48 f9 0e bc e3 cc 56 be
       -0.12507696 0.31143087 -0.0087264255 -0.20976596
000080 eb 97 86 be 04 41 d7 bc 4e bf 8b 3e 79 80 7c 3e
       -0.2628778 -0.026276119 0.2729439 0.24658383
000090 63 5b 78 bd 42 1e 36 3e 5f c1 3b bd c2 9c 9b be
       -0.06063403 0.1778498 -0.04583871 -0.30393034
0000a0 6e bc 95 3e 3d 69 51 3e 85 59 40 be a4 b0 a4 be
       0.29245323 0.20450301 -0.18784149 -0.32166016
0000b0 4f 4e a2 3d 3d 83 8a be dd 4f bf 3c 5b d0 a8 be
       0.079250924 -0.27053252 0.023353511 -0.32971463
0000c0 c4 e1 94 be 4a 42 5c be db 4c 8e be 03 9e 62 be
       -0.29078496 -0.21509662 -0.2779301 -0.22130589
0000d0 4a 00 63 3d d6 7f 5b bd 77 3b e5 bb 2a f5 a5 3e
       0.055420198 -0.05358871 -0.006995614 0.32413608
0000e0 ef 78 34 bc c9 a7 f5 3d 02 26 56 be 59 77 1e be
       -0.011015161 0.11994893 -0.20912936 -0.15475215
0000f0 52 3a b6 3d f5 38 19 be f2 25 96 3c 0b 1e 70 bd
       0.088978425 -0.14963134 0.01832864 -0.0586224

layers.1._attention._v_proj.bias f4 [8]
000000 ef a3 13 3e d9 57 8e 3d 02 1b 85 3e 9f 65 92 be
       0.14418004 0.06950349 0.25997168 -0.28593156
000010 82 7a 9d 3c e0 3b fa 3d c0 b9 7b bd 93 a5 2e 3c
       0.019223455 0.122184515 -0.061456442 0.010659593

layers.1._attention._o_proj.weight f4 [8, 8]
000000 64 1f 32 be 1a 53 b0 bd be 61 ed bc 86 c5 74 3e
       -0.17394787 -0.086096 -0.028977271 0.23903474
000010 e4 9e a9 be 5b 5a 88 3e ea 03 41 3e 8f b8 89 3e
       -0.33129036 0.26631436 0.1884915 0.2689862
000020 04 8d 80 be 26 ed d5 3d 0c 54 16 be 02 fb bd 3d
       -0.25107586 0.10445623 -0.14680499 0.092763916
000030 eb 38 05 3e 67 be 24 3e 4e 2b 84 3e bf e4 87 3e
       0.13009994 0.16088258 0.2581429 0.26541707
000040 bb c2 a9 3e a7 4b 7c 3e f7 32 8e be f9 62 84 3e
       0.3315638 0.24638234 -0.27773258 0.2585676
000050 b1 8c 4d 3d e2 e8 61 3e a9 a7 0e be e5 63 ee bc
       0.050183002 0.22061494 -0.13931145 -0.029100368
000060 88 e2 00 be 74 fd 96 be fe 93 7d be a7 de f4 3d
       -0.12586415 -0.29490244 -0.24763486 0.1195653
000070 e1 8e b3 be 94 38 93 3e 50 63 5d 3e 2d fb 99 be
       -0.35069945 0.28754103 0.21619916 -0.30074444
000080 93 ed c6 bd 8d bb 87 3d 00 75 9b 3d ef 75 af be
       -0.097132824 0.06627569 0.07590675 -0.34269664
000090 39 fc 60 be 96 22 44 be 82 65 58 3e 1a 21 65 3e
       -0.21971215 -0.19153818 0.21132472 0.22375908
0000a0 15 af 0a 3e c9 95 c0 3e b9 e6 52 3e 26 f6 8b bc
       0.13543351 0.37614277 0.20595826 -0.017085146
0000b0 18 11 a4 3e 7b 3e 81 3e d4 a9 a0 3e 16 ab c9 3d
       0.32044291 0.2524298 0.3137957 0.09847085
0000c0 7a 87 71 3e 94 8b c2 be a3 8f 45 3d 7c d3 41 be
       0.23586836 -0.37997115 0.048232686 -0.18928331
0000d0 3b 5d 99 3e e2 16 b4 be 03 9a 60 be 32 86 36 3e
       0.29953942 -0.35173708 -0.21933751 0.17824629
0000e0 d6 5d 71 be 2a b2 42 be 18 a6 b4 3d 15 85 da 3d
       -0.23570952 -0.19013277 0.08820742 0.10669915
0000f0 52 80 f0 3d 24 61 61 3e 9b c2 58 be 42 a1 01 3e
       0.11743225 0.22009712 -0.21167986 0.12659171

layers.1._attention._o_proj.bias f4 [8]
000000 6b d9 ab be 48 b9 ed bc 0d 01 48 be 12 ca ae 3d
       -0.33564314 -0.029019013 -0.19531651 0.085346356
000010 6c ae 12 3d 05 ba 94 3e ba e5 55 be e1 e3 2f 3e
       0.035810873 0.29048172 -0.20888415 0.17176773

layers.1._norm1.weight f4 [8]
000000 23 29 9f 3f 81 d8 8c 3f 40 f8 7f 3f 57 c1 8b 3f
       1.2434429 1.1003572 0.99988174 1.0918378
000010 43 6b 92 3f 95 59 84 3f ce b2 b8 3f fe 5b 8b 3f
       1.1438984 1.0339838 1.4429567 1.0887449

layers.1._norm1.bias f4 [8]
000000 11 07 c0 38 98 1d eb b7 e5 1d 8d b7 49 23 1c b8
       9.15659e-05 -2.8027964e-05 -1.682243e-05 -3.722616e-05
000010 00 bf db b7 29 57 0e b8 9e 28 b8 37 82 61 8d b6
       -2.6195776e-05 -3.3936612e-05 2.1953423e-05 -4.213479e-06

layers.1._norm2.weight f4 [8]
000000 14 6c 89 3f 6c e8 8a 3f c4 9d 56 3f 6e cd 9b 3f
       1.0736108 1.085218 0.8383448 1.2172067
000010 ac f9 64 3f 69 c1 53 3f 41 a2 a8 3f b7 36 8e 3f
       0.8944347 0.82716995 1.3174516 1.1110448

layers.1._norm2.bias f4 [8]
000000 8e 3a 35 b9 db 89 bf 37 e5 41 c1 38 e0 eb 26 39
       -0.00017283318 2.2833168e-05 9.215231e-05 0.00015918864
000010 57 91 ab b8 56 7a 7a b9 1c f7 93 38 06 52 8f 37
       -8.180987e-05 -0.00023887432 7.055534e-05 1.7085124e-05

layers.1._mlp.0.weight f4 [32, 8]
000000 ac 19 ed 3c 08 b0 05 be be 7c c9 3d 7a 67 9b be
       0.028942905 -0.13055432 0.09838246 -0.30352384
000010 b3 2e 2b be 48 8b aa 3d 27 00 87 3e aa 54 3f 3e
       -0.16717033 0.08327347 0.26367304 0.1868464
000020 7b f4 9b be 99 d8 92 3e d7 9d 97 3d 65 cb 09 3e
       -0.3045996 0.28680876 0.074031524 0.13456495
000030 49 50 1a 3e 1e 00 8c 3d 11 c9 87 be 28 84 5e 3e
       0.15069689 0.0683596 -0.2652059 0.21730101
000040 ab 22 a6 be 3a 65 92 3e f9 08 06 3e 91 f2 12 bb
       -0.32448325 0.28592855 0.1308936 -0.0022422413
000050 6e 1a fc 3c 30 d5 30 be fb 9f b2 be 96 db 8f 3e
       0.030774321 -0.17268825 -0.3488768 0.28097218
000060 c5 a6 20 3d a5 8d 38 3e 26 95 bd bc f3 43 e7 3d
       0.039221544 0.18022783 -0.023142409 0.11292257
000070 ac 0c d3 be c7 9d 64 be 70 27 9f 3e 4b 2d 2c 3e
       -0.41220605 -0.22325812 0.31084776 0.16814153
000080 ce 0d 35 3d af c2 69 3e 28 64 f5 3d 12 23 6c 3e
       0.04420262 0.22828172 0.11981994 0.23060253
000090 8c a2 8e 3e 59 92 27 bd 87 ac dc 3d 67 d9 9d be
       0.27858388 -0.040911052 0.107750945 -0.30829927
0000a0 08 57 74 3e 5c 4a 29 be 2a 8a d7 3d d5 49 59 3e
       0.23861325 -0.16532272 0.105243996 0.21219571
0000b0 d5 92 2b be 7a 33 a4 3b eb 31 aa 3e 70 60 f8 3d
       -0.1675523 0.0050110193 0.3324121 0.12127769
0000c0 7a a9 b2 3d 34 fe 99 be 33 32 4f be a3 d9 e1 bb
       0.08723731 -0.30076754 -0.20233993 -0.0068923994
0000d0 d6 ce 04 be 58 56 07 be 09 34 7e 3e 3d 6a 65 be
       -0.12969527 -0.13216531 0.24824537 -0.22403808
0000e0 e4 fe 47 be 69 e3 14 3c 01 f8 ac 3d 25 49 e0 3d
       -0.19530827 0.009087422 0.084457405 0.10951451
0000f0 66 a8 6f 3d d0 c8 7a 3e a9 ca c1 3d ce 5e d1 3d
       0.058510207 0.24490666 0.094624825 0.10223161
000100 5c c3 42 bd 15 ac 2b be f4 b9 0d be ed 4e 3b 3e
       -0.04754959 -0.16764863 -0.13840467 0.18291827
000110 5e 5e 4e be 88 45 79 be 3f 4b e8 bd bf c7 b3 be
       -0.20153186 -0.2434293 -0.11342477 -0.35113332
000120 e1 2a ed bd a6 39 35 3e 62 22 4d be d9 a1 cf 3d
       -0.11580444 0.17697772 -0.20032647 0.10138292
000130 56 fb 8e be 8c d6 f2 39 78 dc 68 be b2 4c 24 be
       -0.2792613 0.00046317687 -0.22740352 -0.16044882
000140 bd 21 40 3e 3d 0a 6f 3e ed c0 6c be fa a7 0e be
       0.1876287 0.2334375 -0.2312047 -0.13931265
000150 8a c6 58 bd 25 b4 4c be bc 68 47 be 85 bc 85 3e
       -0.052923717 -0.19990595 -0.19473547 0.2612039
000160 53 94 ec bd 6b 04 c5 3c 2f b5 01 3e 60 1b f3 bd
       -0.11551728 0.024049958 0.12666772 -0.11870456
000170 0c e2 f9 bd 69 e3 51 3e 6d f0 3e be 48 e7 ae 3e
       -0.12201318 0.20496906 -0.18646403 0.3416083
000180 67 ac 98 be b4 04 bc 3e 03 2a 77 bb 40 74 37 3d
       -0.29819033 0.36722338 -0.003771425 0.0447886
000190 41 58 ed 3d 1f 4d 58 3c ab 90 3f bc 8b eb 5b be
       0.11589099 0.013201981 -0.011692206 -0.21476571
0001a0 f5 c1 a6 3e c5 6e 4f be 78 97 b1 be 1a cb df bd
       0.32569852 -0.20257099 -0.34685874 -0.109274104
0001b0 c3 ff eb 3d 83 15 37 be 02 80 17 ba 5f 86 9b be
       0.11523392 -0.178793 -0.00057792675 -0.30375955
0001c0 22 ff 8b be 0b 53 80 be 82 57 70 3e 77 ca 7b 3e
       -0.27343088 -0.25063357 0.23470882 0.24588953
0001d0 12 ae 6b be ca 8f 09 bb b4 7e af be b9 80 5a 3e
       -0.23015621 -0.0020990246 -0.34276354 0.21338166
0001e0 43 28 d6 bd dc 38 b5 be 2e 56 31 be 4f d2 14 bd
       -0.10456898 -0.35394943 -0.17318031 -0.03633338
0001f0 cc 72 99 3e 2e d6 e5 3d 96 d7 31 be bc e2 7c be
       0.29970396 0.11222492 -0.17367396 -0.24695867
000200 b2 23 ac 3e 81 8a 9b 3e d7 a0 3f be 12 e2 d1 3d
       0.33620983 0.30379108 -0.187137 0.102481976
000210 aa da 8c 3e c1 3a fb bc 5f da 34 3e 6e 4a a3 be
       0.27510577 -0.030667664 0.17661427 -0.31892723
000220 a5 45 87 be c4 70 40 3e c0 84 bf bc 81 2d 3b be
       -0.26420322 0.18793017 -0.02337873 -0.18279077
000230 d8 97 ea 3c b4 92 c5 be 28 ea c6 bd e1 d8 6d be
       0.028636858 -0.38588488 -0.097126305 -0.23227264
000240 81 0e b1 3e c9 9c 2e be 57 1f be 3c b2 fa 5e be
       0.34581378 -0.17051996 0.023208303 -0.2177532
000250 02 0f 00 3e fa 01 4f be a7 12 a4 3d 84 eb 93 be
       0.12505725 -0.20215598 0.0801137 -0.28890622
000260 c2 68 e8 3d 87 53 87 3c 96 7e 8f be 23 03 77 3e
       0.11348106 0.016519321 -0.28026265 0.2412229
000270 b6 2a aa bd 6a 7c 06 bd 20 f7 86 3e 4a d7 ad 3e
       -0.08308928 -0.032833494 0.26360416 0.33953315
000280 be 30 2c 3e c1 81 6d 3d 46 87 32 bd 24 99 bd be
       0.16815469 0.05798507 -0.043586038 -0.370309
000290 65 f4 d5 3d a2 e9 56 be 99 81 5a 3e ef e7 a9 3d
       0.10447005 -0.20987561 0.213385 0.08296191
0002a0 d5 0c 99 3e cd c8 a9 3d 0a bb a0 3d 8a 23 eb bc
       0.29892603 0.08290253 0.07848175 -0.02870347
0002b0 cc a8 8e 3e 25 41 65 be b5 f5 cc bd ca 62 39 3e
       0.27863157 -0.22388132 -0.100078024 0.18104091
0002c0 9b b1 23 3e b0 6c a2 3e 4f 67 aa be 5c 9b 10 bd
       0.1598572 0.31723547 -0.33281943 -0.035304412
0002d0 b6 ec 99 3d 65 45 9d 3e ce 4b 7c be 07 35 4e be
       0.07515852 0.30717006 -0.24638292 -0.20137416
0002e0 73 f4 d7 bd 87 f4 47 be 47 ff 1c be 95 46 16 be
       -0.10544672 -0.19526874 -0.15331756 -0.14675362
0002f0 94 b3 dd 3d cd da 71 3e 9c 3a b7 3d af 6e ae 3e
       0.108252674 0.23618622 0.08946726 0.3406882
000300 5d dc ae 3e b0 bf 5a be 10 93 9c be 82 11 26 3e
       0.341525 -0.21362185 -0.3058095 0.16217616
000310 c4 4f 0d 3e e7 9a 9d 3e af b6 be be ea 8b 57 3e
       0.1379996 0.30782244 -0.37248752 0.21049467
000320 5d b2 66 be 10 7b c8 3c a5 d4 91 be 55 cd ab be
       -0.22528978 0.024472743 -0.28482547 -0.33555093
000330 cb d6 1d be 18 c4 96 3e cf f2 e5 bd d5 cb 58 3e
       -0.15413968 0.29446483 -0.11227953 0.21171506
000340 77 ca b9 3e fe 25 34 be a7 4d 54 3e 1b 5b a0 be
       0.3628728 -0.17592618 0.20732747 -0.31319508
000350 32 0b 5d 3e 2f 6c 65 3d b6 32 a3 be 94 79 c1 3d
       0.21586302 0.056011375 -0.31874627 0.09447017
000360 94 68 37 be 7a c6 69 be b0 88 5e 3e 7b 6d 9b 3e
       -0.17910987 -0.22829619 0.2173183 0.30356964
000370 a7 d3 1c 3e fd e1 8a be 43 ca 30 be ec 28 50 be
       0.15315114 -0.2712554 -0.17264657 -0.2032811
000380 60 a3 a6 3e dc e8 5b bd 5c 9b f2 bc 89 e5 5a 3e
       0.3254652 -0.05368887 -0.029615097 0.21376623
000390 b2 05 04 3e 88 45 a7 3d 4a 2e 0d 3e a5 55 93 3e
       0.12892798 0.08167559 0.13787189 0.2877628
0003a0 8c aa a6 bd c3 e5 ed 3d 74 48 f7 bd 65 3c 1b be
       -0.08137998 0.11616089 -0.12074366 -0.15159757
0003b0 1e 3e 46 3c 39 9d 3c 3e 31 b5 84 be da 50 7e be
       0.012099771 0.1841935 -0.25919488 -0.2483553
0003c0 78 fb 71 3e 0b bb 9a 3e b2 32 98 be 5d 17 63 3e
       0.23631084 0.30220827 -0.29726177 0.22176881
0003d0 39 6a 4b 3e e8 4c a4 3e 55 ca cc 3d 43 ff 9e 3e
       0.1986474 0.32089925 0.09999529 0.31054124
0003e0 f4 97 a9 3d 09 09 a2 be 30 35 35 be b7 5f f0 bd
       0.08280936 -0.31647518 -0.1769607 -0.11737006
0003f0 4f 33 13 be 8d f4 e6 3d d0 ed b3 3e c5 13 7d 3e
       -0.14375041 0.11277113 0.35142374 0.24714573
